models/a2c/ronda_Prueba_20/step_2375000/policy_state.pt (torch, 757256 bytes, 41 tensors)

mlp_extractor.policy_net.0.weight f4 [64, 555]
000000 20 69 37 3d 0e 6b f1 3d a0 a1 72 bb ff d4 d9 3d
       0.04477799 0.11787997 -0.0037022606 0.10636329
000010 27 3c c4 bd c5 5d 65 3d e1 7b a3 3b 8b 1c 37 3d
       -0.09581786 0.05599763 0.0049891328 0.044704955
000020 8b e6 c9 3b 46 cf 47 bd 1b f9 a0 3d 7c 72 24 3d
       0.006161516 -0.048781656 0.07860013 0.040148243
000030 94 e0 b8 bd f0 7b ce 3d fa f2 3a bd 2c fd 06 bd
       -0.0902721 0.10082233 -0.045641877 -0.032956287
000040 30 ea 83 bc d4 6c a4 3c 27 a8 03 3d 7e 92 05 3e
       -0.01610288 0.020071425 0.032142784 0.13044164
000050 3c 24 80 bd 50 7b f1 bd fc 93 80 3d 70 7d ed bd
       -0.06256911 -0.11791098 0.06278226 -0.11596191
000060 69 5c 47 bd b9 61 99 3c 0e ed fa 3b 77 f3 92 3d
       -0.048672114 0.018723356 0.0076576537 0.071753435
000070 d5 85 0c 3d 3e 0b 48 bd 50 1a 1e be 36 cc 25 3d
       0.03430732 -0.048838846 -0.15439725 0.040477954
000080 b6 01 85 bc d7 39 e2 3c d2 16 5d 3d 32 dd ca bc
       -0.016236167 0.02761547 0.05397684 -0.024763677
000090 f3 1b 94 3d 42 2c 90 3c bc f8 14 bc 81 59 e5 3b
       0.072318934 0.017599229 -0.009092506 0.006999195
0000a0 f9 38 05 bd 84 af ec 3d 87 ee 51 38 98 7c 9a 3d
       -0.032525036 0.115569144 5.005163e-05 0.075432956
0000b0 e7 88 90 bd bf 98 b9 3d 66 0e d7 bd 36 6a 54 3c
       -0.07057362 0.09062337 -0.10500793 0.012964776
0000c0 14 b5 d8 3d 2b 8b 8c bd 40 ee 1a 3d e0 ce 57 3d
       0.10581413 -0.06862482 0.03782487 0.052687526
0000d0 d7 a2 a7 3d f4 1c 5b 3c e6 5c da bc bd cd 06 bd
       0.08185356 0.013373602 -0.026655626 -0.03291105
0000e0 1e d1 3a 3d 80 dc 73 bd 3b e1 df 3a a0 6c 27 bd
       0.045609586 -0.059536457 0.0017080674 -0.040875077
0000f0 7b 73 82 bd 55 73 9b bc 96 25 07 bc db 71 09 bd
       -0.063696824 -0.018975893 -0.008248707 -0.033555847
000100 74 0c e3 bd 6a d1 5f 3d 46 99 05 3d 11 fc 93 bb
       -0.110863596 0.054643072 0.032616876 -0.0045161326
000110 83 fe dc bc 6b 8c c0 bd 4c 11 3f 3c 54 5b 8d 3d
       -0.02697683 -0.094017826 0.011661839 0.06902185
000120 c8 08 fb 3d ae a4 e9 3c 92 cd 8d bb 01 3d bb bb
       0.12257534 0.028520908 -0.0043274844 -0.0057140593
000130 5a b9 b7 3d 19 3f a5 3d ee f9 9a bd 1b 7b a6 bd
       0.089709 0.080686755 -0.075672016 -0.08128949
000140 e3 2f bb bc 7a a9 9e bd f5 a9 3c 3c 41 e6 9b bd
       -0.022849983 -0.07747169 0.01151513 -0.07612277
000150 19 0f f1 3d 78 86 c7 bd c7 51 17 bd 14 0d 89 3d
       0.11770458 -0.09742445 -0.036943223 0.066919476
000160 15 68 4f bd 5f e6 99 bd 90 7a 2a bb 19 b9 e2 3c
       -0.05063637 -0.07514643 -0.0026012994 0.027676152
000170 6a df 84 bd 58 72 53 3d 80 7e 83 bd 20 49 a7 3c
       -0.06487925 0.05162272 -0.06420612 0.02042061
000180 b2 70 f0 bc 88 a9 31 bd 3c 1a ec 3d f6 ad 38 bd
       -0.029350612 -0.04337457 0.11528441 -0.045087777
000190 85 82 3d 3d 9b 1a e8 bc 13 ec e2 bc 02 5a d5 3c
       0.04626705 -0.028332999 -0.02770046 0.026043896
0001a0 12 6d 6d bc c5 eb da bc c5 38 c0 bc ac 28 86 bd
       -0.014491336 -0.026723752 -0.02346457 -0.06550726
0001b0 a0 b8 db bd 8b e1 d2 3d 4b 83 91 bd 61 b8 aa 3d
       -0.10728574 0.10296925 -0.0710512 0.08335949
0001c0 d5 05 23 bd 9d 02 64 3c 11 ed 7c bd 9b b5 5f ba
       -0.039800484 0.013916639 -0.06174952 -0.0008533836
0001d0 50 5d 4f bd 6b 10 5f bd 6a f4 42 bd 21 a3 7c bc
       -0.0506261 -0.054459017 -0.047596373 -0.015419752
0001e0 81 be c4 bd c9 a1 fe bc cb 33 25 bd 18 3b aa bc
       -0.09606648 -0.031083005 -0.040332597 -0.020780131
0001f0 59 99 eb bb b5 d0 28 bd 43 e5 1a bd 4a 68 9d 3d
       -0.0071899113 -0.041214664 -0.037816297 0.07685907
000200 f0 9b 35 3d b8 5c 38 bd bf 11 62 bd 5a a7 c4 bd
       0.044338167 -0.0450103 -0.055192705 -0.09602232
000210 4d ee b4 3a 35 29 75 bc 93 31 86 3d 9f d7 c1 bb
       0.0013803929 -0.014963438 0.06552424 -0.0059155966
000220 16 70 ab bd 64 23 45 bd 51 dc da bd cf 3e d3 3c
       -0.08370988 -0.048129454 -0.10686553 0.025786785
000230 11 c6 b6 bd 95 e1 0e 3d 72 c3 56 3d cc eb 1a 3d
       -0.08924497 0.0348831 0.052432485 0.03782253
000240 0b 83 96 3a 45 99 cc bd 1b 77 a7 3d 22 7b 95 3c
       0.0011483146 -0.09990171 0.081770144 0.01824719
000250 73 53 c6 bc b5 b8 da 3d ee 60 04 bd aa 3d 52 3a
       -0.024209714 0.10679761 -0.032319 0.0008020053
000260 dc bf 39 3d 0f aa 3a be 9b 85 69 bc 1c 2a 0f bd
       0.045348987 -0.18228935 -0.014253045 -0.034952268
000270 74 73 f9 3c a8 2f d4 bc dc e6 78 3c 93 05 ae 3d
       0.03045056 -0.02590163 0.01519176 0.08497157
000280 93 6b e7 bc 54 3a 87 3b 64 d5 a6 bd 68 76 84 bd
       -0.028249538 0.0041268263 -0.0814617 -0.06467897
000290 6f cc 3e bd 84 96 87 bd f7 4d 37 bd 1f 31 4f 3d
       -0.04658168 -0.066205055 -0.044752087 0.050583955
0002a0 09 11 54 3d 50 f7 2f bc 99 1e b7 3d d3 2e 09 3e
       0.05177406 -0.010740116 0.08941383 0.13396768
0002b0 ba 07 dd 3d 10 68 fc bd e9 2f 46 bd 58 f0 80 bc
       0.10792489 -0.12324536 -0.048385534 -0.015739605
0002c0 5e b7 39 3c f6 d3 05 3d 2e a8 71 3c 8d 74 63 3b
       0.011335222 0.032672845 0.01474957 0.003470692
0002d0 75 8d d7 bc 72 d6 e9 bc b8 0c 8d bc 43 17 24 bd
       -0.02631257 -0.028544638 -0.017217979 -0.040061247
0002e0 b4 7c ef 3c 07 fe db bc 94 c7 d7 bd 4c 13 06 3d
       0.029234268 -0.026854528 -0.105361134 0.032733247
0002f0 c3 f4 c9 bc 26 a9 d4 bb be 79 cc 3c b1 dd d6 3d
       -0.024652844 -0.0064898906 0.024960395 0.10491503
000300 7a 64 b8 3d 67 ac a9 bc 6a 3f a3 3c 57 fd 7e 3c
       0.090035394 -0.02071209 0.0199277 0.015563331
000310 ad b4 46 3d 94 25 c5 bb 6c 67 90 bd 2b b0 a7 bc
       0.04851215 -0.0060164426 -0.07050976 -0.020469746
000320 2d 24 fe 3d 43 36 a0 3d 25 e3 a9 3c 78 da e5 bc
       0.12409244 0.078228496 0.020738194 -0.028058276
000330 cb a6 a9 bd 5a b6 0e 3e 6a 6d dd 3b 7d f6 38 bd
       -0.08283766 0.13936749 0.006757428 -0.045156945
000340 89 33 89 3c 39 3f a9 3d 52 32 36 3e ab fa 42 bd
       0.016748207 0.08264012 0.17792633 -0.047602337
000350 a8 e8 06 3d 32 27 95 3d 48 0f a5 3c 29 de 05 bb
       0.032936722 0.072828665 0.020148888 -0.0020426607
000360 ca 56 d2 bd ab 24 a4 3c 9a 7d eb bc 4c b9 a2 bd
       -0.1027046 0.020037016 -0.028746415 -0.07945499
000370 09 23 f2 3c d3 6e e1 bc 51 5d 5c bd 6d 6a 08 bd
       0.029557722 -0.027518665 -0.05379993 -0.03330462
000380 6c 07 70 3c 37 a3 6f 3d 40 6b 95 bd 17 ef 08 be
       0.014650207 0.058505263 -0.07295847 -0.13372456
000390 9b 30 2a bd d6 21 b2 3c f5 de 78 bc 39 dd ef bc
       -0.04155026 0.02174465 -0.015189876 -0.029280292
0003a0 6a 64 c8 3c 86 52 69 bc 83 67 d2 bc 7a 74 32 3d
       0.024461944 -0.0142408665 -0.025684124 0.043568112
0003b0 f4 ca 31 3c 72 1f 5e bd 72 4e 8b bc 6a 42 83 3c
       0.01085161 -0.054229207 -0.01700518 0.01602288
0003c0 b7 93 ac 3d f1 c6 a5 3d 61 38 7f 3d 1a 21 a1 3c
       0.08426612 0.08094586 0.062309626 0.019669104
0003d0 9c d6 7f 3d a7 61 a5 3c 8b 0e f2 3c 9e 92 09 3e
       0.062460527 0.020188166 0.02954795 0.13434836
0003e0 15 85 e8 bd 93 c0 43 3c 1c 4b f7 bd 1a d2 91 3c
       -0.113535084 0.011947769 -0.12074873 0.01780038
0003f0 ff 61 9b bd 2d 38 36 bc 1e 85 ea bc 50 a9 72 3d
       -0.07587051 -0.011121792 -0.028627928 0.0592435

mlp_extractor.policy_net.0.bias f4 [64]
000000 00 00 00 00 00 00 00 00 00 00 00 00 00 00 00 00
       0.0 0.0 0.0 0.0
000010 00 00 00 00 00 00 00 00 00 00 00 00 00 00 00 00
       0.0 0.0 0.0 0.0
000020 00 00 00 00 00 00 00 00 00 00 00 00 00 00 00 00
       0.0 0.0 0.0 0.0
000030 00 00 00 00 00 00 00 00 00 00 00 00 00 00 00 00
       0.0 0.0 0.0 0.0
000040 00 00 00 00 00 00 00 00 00 00 00 00 00 00 00 00
       0.0 0.0 0.0 0.0
000050 00 00 00 00 00 00 00 00 00 00 00 00 00 00 00 00
       0.0 0.0 0.0 0.0
000060 00 00 00 00 00 00 00 00 00 00 00 00 00 00 00 00
       0.0 0.0 0.0 0.0
000070 00 00 00 00 00 00 00 00 00 00 00 00 00 00 00 00
       0.0 0.0 0.0 0.0
000080 00 00 00 00 00 00 00 00 00 00 00 00 00 00 00 00
       0.0 0.0 0.0 0.0
000090 00 00 00 00 00 00 00 00 00 00 00 00 00 00 00 00
       0.0 0.0 0.0 0.0
0000a0 00 00 00 00 00 00 00 00 00 00 00 00 00 00 00 00
       0.0 0.0 0.0 0.0
0000b0 00 00 00 00 00 00 00 00 00 00 00 00 00 00 00 00
       0.0 0.0 0.0 0.0
0000c0 00 00 00 00 00 00 00 00 00 00 00 00 00 00 00 00
       0.0 0.0 0.0 0.0
0000d0 00 00 00 00 00 00 00 00 00 00 00 00 00 00 00 00
       0.0 0.0 0.0 0.0
0000e0 00 00 00 00 00 00 00 00 00 00 00 00 00 00 00 00
       0.0 0.0 0.0 0.0
0000f0 00 00 00 00 00 00 00 00 00 00 00 00 00 00 00 00
       0.0 0.0 0.0 0.0

mlp_extractor.policy_net.2.weight f4 [64, 64]
000000 01 ee 90 3e 43 7b 6a 3e b5 0b 16 be b3 b2 21 bd
       0.28306583 0.22898583 -0.14652903 -0.03947706
000010 62 31 3c 3e 72 f0 cb bd f8 de 8b be 7d d7 c8 3d
       0.18378213 -0.09957971 -0.2731855 0.09806726
000020 ab 76 49 bc 6a f6 20 3d 45 4c 6b be 14 8c 10 3e
       -0.012296359 0.0392975 -0.22978313 0.14115936
000030 e9 d9 d8 bd 48 10 80 3e 1d 2f 45 3d f0 9f f6 3d
       -0.10588438 0.25012422 0.048140634 0.120422244
000040 0e da 02 3e bc 0e e0 bd f2 34 9c bd a1 bd fd bd
       0.12778494 -0.1094031 -0.07627286 -0.123896845
000050 93 42 a6 bb e8 51 b6 be e1 a4 31 be 07 0a 69 3e
       -0.0050738542 -0.35609365 -0.17348053 0.22757731
000060 1d e6 39 be 87 98 cd 3c 10 a1 11 3d 17 b1 c6 3d
       -0.18154188 0.025097145 0.03555399 0.09701746
000070 bc 8d 74 be 0c 20 84 bd 71 c4 ed bc b9 52 27 be
       -0.23882192 -0.06451425 -0.029024335 -0.1634015
000080 13 f1 82 be 69 6e a2 bd 92 88 19 be 46 61 26 ba
       -0.2557455 -0.07931215 -0.14993504 -0.00063468923
000090 10 a4 57 3e e6 29 25 be 34 61 a9 bc 0c 98 d8 bc
       0.21058679 -0.16129264 -0.020676233 -0.02643969
0000a0 2a c0 aa be b5 49 01 3f 38 d6 74 be 20 e1 17 3e
       -0.33349735 0.50503093 -0.23909843 0.14831972
0000b0 5e e1 31 be 3f bc 0e bb 24 75 c2 be 6f c8 ee bb
       -0.17371127 -0.0021779684 -0.37979996 -0.007287077
0000c0 8d 0a bb 3e 34 2e 00 be 33 5b 2d bd 89 c6 f5 bb
       0.36531487 -0.12517625 -0.042323302 -0.007500474
0000d0 cf 55 18 be 7f 16 2f be b8 10 1e 3d f4 d3 dc 3a
       -0.14876483 -0.17098425 0.038590163 0.0016847835
0000e0 af a2 2b bd 60 41 93 be 36 77 7e bd ec e2 ea bd
       -0.041903194 -0.28760815 -0.062125407 -0.11469063
0000f0 67 cc ef bc 20 97 68 3e 2e 95 c1 3b 05 08 05 3e
       -0.029272271 0.227139 0.005907676 0.1299134
000100 eb f7 30 3d 58 2a b8 bc 16 ba ce 3e 1b 8d 87 3e
       0.043205183 -0.022481129 0.40376347 0.26474842
000110 36 2b 01 3e 04 f1 aa 3e e7 63 67 3e 30 c1 5c 3d
       0.1261414 0.33387005 0.22596703 0.053895175
000120 45 d7 92 3d bb b1 37 3e 85 ff b7 3c 06 e3 33 3c
       0.07169966 0.17938893 0.022460708 0.01097942
000130 c3 b8 1d be 18 dc 62 b9 ac a2 9b 3c 06 88 98 bc
       -0.15402512 -0.00021635031 0.018998466 -0.018619549
000140 75 59 c4 bc e4 3a 3b 3e 6e 71 62 be 57 37 d4 3e
       -0.023968438 0.18284184 -0.22113582 0.4144847
000150 d3 cc 14 3d e5 ad d1 bd 48 38 0f be 7a 03 99 bd
       0.036328148 -0.10238246 -0.13986313 -0.07471366
000160 f9 db 07 3e 14 3d 2d bd 67 5a 90 3d 6f 78 84 3e
       0.13267507 -0.042294577 0.07048493 0.25873134
000170 47 86 8e be b1 ac 5c bd c1 87 8c 3b 71 da 0a 3e
       -0.2783682 -0.05387563 0.004288644 0.13559891
000180 58 6a 29 3d bb 7a 0c bf 52 d5 b3 3d 21 01 09 be
       0.041361183 -0.5487477 0.08780922 -0.13379337
000190 bc 88 a8 bd 73 74 6c 3c b8 0e c5 be a4 89 87 3d
       -0.08229205 0.0144320605 -0.38487792 0.0661805
0001a0 bd cb a0 bd f4 ef fa bd f5 56 39 3d c3 53 27 be
       -0.0785136 -0.12252799 0.045248944 -0.16340546
0001b0 7a 37 d5 be 40 a6 58 be a5 e3 bb 3d 9d 0c c3 bc
       -0.41643888 -0.2115717 0.09174279 -0.023809725
0001c0 5b c5 09 be 47 eb f2 bd 33 c3 58 3d b7 82 a6 bd
       -0.13454191 -0.11861282 0.05292053 -0.08130401
0001d0 55 3c c2 bd 82 be 65 be 61 cf fa 3d 07 bf 9e 3d
       -0.09484164 -0.22435954 0.12246586 0.07751279
0001e0 4d 00 7b be 18 4f 1c be 96 7d d3 3d 8e 47 04 be
       -0.24511833 -0.15264547 0.10326688 -0.12917921
0001f0 0a cd 20 be 40 cc d0 3d 11 b4 aa bc 98 d9 9c bd
       -0.15703216 0.101952076 -0.020837815 -0.0765869
000200 63 51 8e 3e ff 26 f6 3d e7 35 2f 3c 36 93 3d 3e
       0.27796468 0.12019157 0.010694004 0.18513188
000210 83 e5 50 bb d9 23 f2 3d 95 22 7b bd d3 ef 36 be
       -0.003187508 0.11823244 -0.061312277 -0.17864923
000220 1e 40 26 be cf 33 39 3e 69 65 e6 3e cd 65 e4 3c
       -0.16235396 0.1808617 0.44999245 0.027880574
000230 d2 ec fb bc dc d1 67 be 92 dd c7 3d c7 b7 5f be
       -0.030752573 -0.22638649 0.09759058 -0.21847449
000240 36 82 60 3c 12 e4 22 be d3 46 15 be ce fa 3f 3e
       0.01370292 -0.15907314 -0.14577799 0.18748018
000250 af bd fd 3d f1 6d 64 3e 3d 13 9b bd 1e 59 ce bd
       0.12389695 0.22307564 -0.07572029 -0.100755915
000260 d9 79 23 be 78 f4 28 3e 0d 36 e8 bd 5d c7 96 bc
       -0.1596445 0.16499507 -0.11338434 -0.01840561
000270 95 42 a0 3e f7 4f e2 bd f7 17 7c be 18 ca 11 3e
       0.31300798 -0.11050408 -0.24618517 0.14237249
000280 bb 3d 3d be 8a e2 92 3e 3f ae 5b bd 2d d0 57 be
       -0.1848058 0.2868846 -0.05363297 -0.21075507
000290 16 5c 30 3d 0b 1c 4e 3e 39 ee 2a 3e c5 1d 57 3d
       0.04305657 0.20127885 0.16692437 0.052518625
0002a0 36 35 b7 3c 34 77 11 bd a2 f3 65 3c 2f f2 0c 3e
       0.02236424 -0.03551407 0.014035137 0.1376426
0002b0 45 30 47 bd f6 47 4d 3d 73 bb 4f be 9f 45 c7 3e
       -0.048630018 0.050117455 -0.2028635 0.38920304
0002c0 96 81 17 bd e2 e2 83 be 76 fc 8e be 4c b0 e2 bc
       -0.036988817 -0.25759035 -0.27926987 -0.027671956
0002d0 9e 81 ca be d5 a9 81 be 03 62 5e bc 32 33 4e bc
       -0.39552015 -0.25324884 -0.0135731725 -0.012585448
0002e0 5b ce 60 3e 0f 97 ee bd 37 05 88 3e 02 51 9d bd
       0.21953718 -0.11649906 0.2656648 -0.07681467
0002f0 b4 d8 34 be 6d 02 8a bc a8 ef 3e 3e 63 a5 98 bd
       -0.1766079 -0.01684686 0.18646109 -0.0745342
000300 e1 18 8c bd c8 3b b2 be c4 fd 3e be 29 3d 4f 3d
       -0.06840683 -0.34811234 -0.18651491 0.050595436
000310 78 52 c7 3e 1a c9 4d bd e0 29 8f 3e 5d 99 48 bc
       0.38930106 -0.050240614 0.27961636 -0.012243596
000320 a7 a1 a5 bd 4d 08 7c be c5 55 94 3d c1 d3 6a 3d
       -0.08087473 -0.24612541 0.07242922 0.05733085
000330 30 00 e5 bb 77 91 44 3e 5e b7 89 be 99 fb 2e 3d
       -0.0069885477 0.19196115 -0.2689771 0.04272041
000340 1b da 69 3d b1 19 19 bb ab 09 5b bd aa 07 57 bc
       0.057092767 -0.002336126 -0.053476017 -0.013124386
000350 b1 6c fb bb 44 9e f7 3d 55 a5 05 be 7a e0 70 be
       -0.007672869 0.12090734 -0.1305135 -0.23523131
000360 f3 c3 b3 bd e0 ca 0e be f5 c3 de bd b3 da 84 bc
       -0.08777609 -0.13944578 -0.108772196 -0.016217565
000370 c7 7a 2b 3c 35 80 94 be f1 98 2f bd 63 cb e4 3e
       0.010466284 -0.29004064 -0.042870466 0.44686422
000380 3c 0c 42 be 3d 17 c0 bd 3b f3 1d be b3 25 83 3e
       -0.1894998 -0.09379432 -0.15424816 0.256147
000390 6e 10 3d 3d 51 e0 44 bb 22 37 b7 be cf b6 11 be
       0.046158247 -0.003004093 -0.3578425 -0.14229892
0003a0 9a e3 1c bd 04 ff b6 3d f3 e4 c0 3d f9 6c 07 bd
       -0.038302995 0.08935359 0.094186686 -0.03306291
0003b0 28 7b 83 bc 64 63 54 bd c2 f6 c4 be 4f fc 99 bd
       -0.016049936 -0.0518526 -0.3846951 -0.07518827
0003c0 14 cb 0f be b7 dc 84 3e 01 bb cf bd 35 4f 1a 3e
       -0.14042312 0.25949642 -0.1014309 0.15069278
0003d0 57 70 8f 3d 57 67 81 3e 58 60 f0 3d 80 2e da bd
       0.07003849 0.25274155 0.11737126 -0.106534004
0003e0 39 0c c1 3e 1d bf a6 bd 4b 8d b8 3d 8f 1e 0d be
       0.37704638 -0.08141921 0.090113245 -0.13781188
0003f0 3a 83 20 bd 0e 74 37 be c6 8b 7d 3e a5 d5 6d 3e
       -0.039187647 -0.17915365 0.2476035 0.2322603

mlp_extractor.policy_net.2.bias f4 [64]
000000 00 00 00 00 00 00 00 00 00 00 00 00 00 00 00 00
       0.0 0.0 0.0 0.0
000010 00 00 00 00 00 00 00 00 00 00 00 00 00 00 00 00
       0.0 0.0 0.0 0.0
000020 00 00 00 00 00 00 00 00 00 00 00 00 00 00 00 00
       0.0 0.0 0.0 0.0
000030 00 00 00 00 00 00 00 00 00 00 00 00 00 00 00 00
       0.0 0.0 0.0 0.0
000040 00 00 00 00 00 00 00 00 00 00 00 00 00 00 00 00
       0.0 0.0 0.0 0.0
000050 00 00 00 00 00 00 00 00 00 00 00 00 00 00 00 00
       0.0 0.0 0.0 0.0
000060 00 00 00 00 00 00 00 00 00 00 00 00 00 00 00 00
       0.0 0.0 0.0 0.0
000070 00 00 00 00 00 00 00 00 00 00 00 00 00 00 00 00
       0.0 0.0 0.0 0.0
000080 00 00 00 00 00 00 00 00 00 00 00 00 00 00 00 00
       0.0 0.0 0.0 0.0
000090 00 00 00 00 00 00 00 00 00 00 00 00 00 00 00 00
       0.0 0.0 0.0 0.0
0000a0 00 00 00 00 00 00 00 00 00 00 00 00 00 00 00 00
       0.0 0.0 0.0 0.0
0000b0 00 00 00 00 00 00 00 00 00 00 00 00 00 00 00 00
       0.0 0.0 0.0 0.0
0000c0 00 00 00 00 00 00 00 00 00 00 00 00 00 00 00 00
       0.0 0.0 0.0 0.0
0000d0 00 00 00 00 00 00 00 00 00 00 00 00 00 00 00 00
       0.0 0.0 0.0 0.0
0000e0 00 00 00 00 00 00 00 00 00 00 00 00 00 00 00 00
       0.0 0.0 0.0 0.0
0000f0 00 00 00 00 00 00 00 00 00 00 00 00 00 00 00 00
       0.0 0.0 0.0 0.0

mlp_extractor.value_net.0.weight f4 [64, 555]
000000 0e ac 4d 3d 11 d3 18 3d 85 98 31 3d a3 42 a8 3d
       0.050212912 0.037310664 0.043358345 0.08215835
000010 b4 ae 9f 3d 76 1c 8f 3c 4d ca 67 3d 7e 43 95 3d
       0.07796994 0.017469626 0.056589413 0.07288264
000020 ee 38 50 3d b4 6e 6a 3d bc b6 63 bc 8f 6f 14 3c
       0.050835542 0.05723448 -0.013898548 0.009059801
000030 8b 7c 84 3c e4 38 e8 3d 69 a0 7d 3c 74 f3 2e 3d
       0.016172668 0.11338976 0.015480139 0.042712644
000040 9a 4e d4 bc 44 c1 75 3d 09 81 b9 bd 27 ea 82 bd
       -0.025916386 0.059998766 -0.09057815 -0.06392317
000050 43 02 45 bd 96 53 15 3d a8 78 9f 3c 9f 6a f0 bc
       -0.04809786 0.036456667 0.019466713 -0.029347716
000060 b1 55 6d bd 89 93 0d bd 06 36 e5 3b 48 9a 57 bd
       -0.05794305 -0.03456453 0.0069949655 -0.05263737
000070 7d dd a2 bc 3f 37 a3 3d e6 45 97 bc ee 74 17 3c
       -0.019881004 0.07969522 -0.018465947 0.009244187
000080 68 b1 31 3d bf 38 50 bd 8b ac 02 bd 9a 43 91 ba
       0.04338208 -0.050835367 -0.03190283 -0.0011082769
000090 c9 25 dd 3b b7 48 22 bd cf 20 f1 3c 89 0c 82 bc
       0.006748889 -0.039620128 0.02943459 -0.015875118
0000a0 c1 f5 aa bc 8c 44 4b bd 99 89 89 bd c4 bd f6 bb
       -0.020869138 -0.04962592 -0.06715698 -0.007529946
0000b0 cf 2d fe 3c e7 fd 60 bd 62 28 33 bd 86 56 3d bd
       0.031027703 -0.05492964 -0.043739684 -0.046225093
0000c0 65 4d 1a 3d 22 fa 8b bd 30 be ae 3d cb b3 f7 bc
       0.037671465 -0.068348184 0.08532369 -0.0302371
0000d0 51 be 59 bd af 27 fc 3b 61 e9 4d 3d e9 61 da 3d
       -0.053160015 0.0076951603 0.050271396 0.10663206
0000e0 19 2e 02 be 06 5a 50 bc a8 22 e3 bd b9 d7 8d 3b
       -0.12712897 -0.012716776 -0.110905945 0.0043286947
0000f0 1d ed a9 3d 4f 56 c8 3d 00 75 84 bb 12 74 f1 bd
       0.08297179 0.09782087 -0.004042268 -0.11789717
000100 6f a8 5f 3c cc fa a9 3d 9d 2b 16 bd 54 12 58 3b
       0.013650998 0.08299789 -0.036662687 0.0032969909
000110 92 e2 1f 3c 1c 16 f9 3c 6d 58 80 bc 60 bb cf 3d
       0.009758608 0.03040605 -0.015667165 0.10143161
000120 d0 7f 44 3d 60 76 4e bc ef 35 63 bd 3f f2 1d be
       0.047973454 -0.012601465 -0.055471357 -0.15424441
000130 e5 ab 40 3d 5e 36 0b bd ff 87 5f 3c 7e db 0e 3b
       0.04703893 -0.033987395 0.013643264 0.0021798308
000140 b9 5d d6 3d 5a 23 f6 3d ec d2 a7 bd 9d 66 c9 3c
       0.10467095 0.120184615 -0.08194527 0.024585063
000150 7e 50 43 bc 38 fb a8 3d c8 dd 45 3d ff cc cc bc
       -0.011921046 0.08251041 0.04830721 -0.025000094
000160 35 62 90 3d aa 95 b9 b9 44 2e 5c 3c cc 92 31 3d
       0.070499815 -0.00035397458 0.013438765 0.043352887
000170 7d be d0 3c c0 9c db bd 4b 1e 9d bd 69 50 4b 3c
       0.025481457 -0.10723257 -0.076717936 0.012409308
000180 26 1f 7a 3d f9 2c 0c be df 5b 09 3e a6 20 84 3d
       0.06106486 -0.1368903 0.13413952 0.0645154
000190 94 a4 b9 bd 46 f8 8f bd 19 f0 3b bd b9 57 8c bd
       -0.09064594 -0.07029776 -0.04588327 -0.06852669
0001a0 a1 60 92 bd 0a 20 a7 bd 73 17 83 bd e6 ff 67 3d
       -0.07147337 -0.08160408 -0.06400957 0.05664053
0001b0 5c 60 4a bb ec c3 1f 3d cb e4 9e 3b 54 5d a9 bc
       -0.0030880189 0.039005205 0.0048490516 -0.020674385
0001c0 07 c1 a6 bc b3 3e f6 39 fe 82 2a 3d be 99 3d 3d
       -0.020355714 0.0004696749 0.04162883 0.046289198
0001d0 5d 77 6f bd 4f 22 a3 bd 01 5a 77 3d 1a 07 a2 bd
       -0.058463443 -0.07965528 0.06038857 -0.07911511
0001e0 4b 86 49 bd 45 db 93 bd 71 09 9d 3c 52 b8 d5 bc
       -0.049200337 -0.07219557 0.019169541 -0.026088867
0001f0 90 b9 d9 bc f3 f4 ab 3d 04 7b cc 3d f5 79 0f bd
       -0.02657774 0.0839633 0.09984401 -0.035028417
000200 99 d9 66 3d 2e 95 9c 3d 7f 12 aa bc af 10 ef bc
       0.05635986 0.07645641 -0.020760773 -0.02918276
000210 6e f6 d6 bc 61 1f 54 3d 9b 2f 5b 3d 37 c6 69 3d
       -0.026240554 0.051787738 0.053512197 0.057073798
000220 e8 ea 83 bc 47 b8 23 3d de a7 e2 bc 88 51 03 bc
       -0.016103223 0.039970662 -0.027667936 -0.008015044
000230 e7 67 08 3d 25 90 18 3d d2 f6 6b bd 82 94 24 bd
       0.033302214 0.037246842 -0.057608433 -0.04018069
000240 86 fc 7a bd 66 6d c2 bc 4b a0 1a 3d 08 97 5e bd
       -0.06127598 -0.023733806 0.037750524 -0.054343253
000250 9a c1 ee bd ad b7 9c 3d 96 4e a7 bd 96 64 88 bd
       -0.1165802 0.07652221 -0.08169286 -0.0665981
000260 ab dd b5 3b c3 4e 6d bd b2 eb 86 3c c8 10 74 bd
       0.0055501065 -0.05793644 0.01646981 -0.059586316
000270 19 8c eb 3b 8e 8f 61 bd a9 0a 85 3d 4c 2a 8b bc
       0.007188332 -0.055068545 0.06496174 -0.016987942
000280 c7 35 ab 3d df d4 0b 3d 8a fe 3c bc 19 f4 e7 bc
       0.083598666 0.034138557 -0.011535296 -0.028314637
000290 6a 46 3b bd 35 af e1 bc 49 a8 88 3d ec 61 c9 3d
       -0.04572145 -0.027549366 0.06672723 0.0983313
0002a0 7c 52 57 bd 22 0a 51 3d 03 a0 a3 3d 35 11 1b 3d
       -0.052568898 0.051035054 0.07989504 0.037858207
0002b0 02 74 58 bc c1 ee 29 3d 55 f4 a3 3d 11 20 5b 3c
       -0.013211252 0.04148746 0.08005587 0.013374344
0002c0 99 cd 86 bc 0a 82 c4 bd c2 32 c1 3c a6 11 16 bd
       -0.016455458 -0.095951155 0.023583774 -0.036637925
0002d0 b6 bd 05 3d 7f e2 7a 3b 23 d8 e4 bd 30 df 8f 3d
       0.032651626 0.0038281975 -0.11174037 0.070249915
0002e0 80 8d 65 3b dc d4 37 3a 84 70 e5 3d bb 6f 44 3d
       0.0035026968 0.00070126145 0.11203101 0.047958117
0002f0 05 5b 38 3e 03 79 a6 bc f9 bf 35 3c 5e 5b 35 bc
       0.18003471 -0.020321375 0.011093133 -0.011069147
000300 22 b7 6e bd cf 7b d8 3d 04 e7 20 bd 09 b9 92 bd
       -0.058280118 0.105704896 -0.039282814 -0.07164199
000310 c5 3c 9e 3d cc 09 41 3d 1a b5 77 3d ba 64 ea 3c
       0.077264346 0.047128484 0.060475446 0.028612483
000320 bf 02 00 be 71 a7 79 bd 90 84 a4 bd 57 b4 51 3d
       -0.12501048 -0.0609507 -0.08033097 0.051197376
000330 95 39 93 3d 3f 05 db bc 91 ab 77 bd bd 36 37 bd
       0.07188717 -0.0267359 -0.060466353 -0.044729937
000340 6c c4 27 bc 27 69 58 3d f5 a6 3e 3c 34 30 ea 3c
       -0.010239702 0.052834656 0.011636485 0.028587438
000350 8e 40 f0 bd e9 67 5f bc 60 65 89 3d 06 db ea 3c
       -0.11731063 -0.013635614 0.06708789 0.028668892
000360 6b 46 97 3d 86 80 a1 bc ed 37 01 bd 2c 34 60 bd
       0.07386478 -0.019714605 -0.031547476 -0.054737255
000370 30 ea 43 bd 91 e0 09 bd ba a4 c8 3c c0 a6 f8 bc
       -0.04783076 -0.03366143 0.02449261 -0.03035295
000380 70 31 02 be ee dd 97 3d c1 18 1e bd fd 9c 4b 3c
       -0.12714171 0.074153766 -0.038597826 0.012427566
000390 93 0d 08 3d 4e 61 e1 3c ff 6f d0 3c 1d c0 50 3d
       0.03321607 0.027512219 0.025444029 0.050964464
0003a0 bf 6a 94 bd 37 05 0c 3d 5b 6d b4 3d bb 53 59 3d
       -0.07246923 0.03418466 0.088099204 0.053058367
0003b0 22 43 6b bc 64 07 3b 3d c7 b0 7a bc 72 c6 88 3d
       -0.014359267 0.045661345 -0.015300936 0.066784754
0003c0 5c dd e1 bd a6 6f c5 bd a9 40 61 3d b8 de 80 bc
       -0.11028549 -0.09640436 0.054993305 -0.0157312
0003d0 7d 07 f8 3a 6a 87 17 3c 47 4f 58 bb 87 52 09 3e
       0.001892313 0.009248594 -0.0033006237 0.13410388
0003e0 32 39 40 bd 0c 19 64 bd d6 b7 a2 bd 12 ea 04 bb
       -0.046929546 -0.05568795 -0.0794522 -0.0020281118
0003f0 82 51 24 3c 12 82 cd bb 49 f3 e1 3b f6 e4 2e bc
       0.010029199 -0.006271609 0.006895457 -0.010674706

mlp_extractor.value_net.0.bias f4 [64]
000000 00 00 00 00 00 00 00 00 00 00 00 00 00 00 00 00
       0.0 0.0 0.0 0.0
000010 00 00 00 00 00 00 00 00 00 00 00 00 00 00 00 00
       0.0 0.0 0.0 0.0
000020 00 00 00 00 00 00 00 00 00 00 00 00 00 00 00 00
       0.0 0.0 0.0 0.0
000030 00 00 00 00 00 00 00 00 00 00 00 00 00 00 00 00
       0.0 0.0 0.0 0.0
000040 00 00 00 00 00 00 00 00 00 00 00 00 00 00 00 00
       0.0 0.0 0.0 0.0
000050 00 00 00 00 00 00 00 00 00 00 00 00 00 00 00 00
       0.0 0.0 0.0 0.0
000060 00 00 00 00 00 00 00 00 00 00 00 00 00 00 00 00
       0.0 0.0 0.0 0.0
000070 00 00 00 00 00 00 00 00 00 00 00 00 00 00 00 00
       0.0 0.0 0.0 0.0
000080 00 00 00 00 00 00 00 00 00 00 00 00 00 00 00 00
       0.0 0.0 0.0 0.0
000090 00 00 00 00 00 00 00 00 00 00 00 00 00 00 00 00
       0.0 0.0 0.0 0.0
0000a0 00 00 00 00 00 00 00 00 00 00 00 00 00 00 00 00
       0.0 0.0 0.0 0.0
0000b0 00 00 00 00 00 00 00 00 00 00 00 00 00 00 00 00
       0.0 0.0 0.0 0.0
0000c0 00 00 00 00 00 00 00 00 00 00 00 00 00 00 00 00
       0.0 0.0 0.0 0.0
0000d0 00 00 00 00 00 00 00 00 00 00 00 00 00 00 00 00
       0.0 0.0 0.0 0.0
0000e0 00 00 00 00 00 00 00 00 00 00 00 00 00 00 00 00
       0.0 0.0 0.0 0.0
0000f0 00 00 00 00 00 00 00 00 00 00 00 00 00 00 00 00
       0.0 0.0 0.0 0.0

mlp_extractor.value_net.2.weight f4 [64, 64]
000000 a9 0e 22 bc 01 29 8a 3e 35 9d 81 bd ee 87 bb 3c
       -0.009891191 0.26984408 -0.06328813 0.022891965
000010 97 b5 97 3d e7 62 85 3d f3 89 7f 3e e0 ab 53 3e
       0.074076824 0.06513005 0.24954967 0.20671034
000020 27 97 0b 3e dc 62 bc 3d 21 7c 9b 3d c4 94 0e 3e
       0.13631879 0.091985434 0.07592035 0.13923937
000030 78 59 42 bd 4b 55 8d bd 90 5d 02 3e 5d 9a 7c 3c
       -0.047448605 -0.06901034 0.12731004 0.015417662
000040 9f a3 a5 bc 03 3e d2 3d e6 39 8d 3e 80 21 96 bc
       -0.020219622 0.10265734 0.27583236 -0.01832652
000050 15 24 84 3e 91 57 60 bd 1f 95 d9 3c c6 c2 2a be
       0.25808778 -0.05477101 0.026560364 -0.16675863
000060 f6 e0 3c be 8b 80 47 bd ac 05 55 be 93 49 24 be
       -0.18445191 -0.048706573 -0.20802945 -0.16043691
000070 43 ff 39 3e 26 80 10 bd 47 f2 09 3e 3b 05 55 be
       0.18163781 -0.035278462 0.13471328 -0.20802777
000080 8c 3a f4 3c d9 03 81 be 0c b6 d2 be 67 9b 82 be
       0.029813074 -0.25198248 -0.41154516 -0.25509188
000090 3c aa 6e be f6 37 1e bd f2 63 0c 3c 52 a6 b5 3d
       -0.23307127 -0.038627587 0.008568751 0.08869614
0000a0 12 44 9f be 4c 25 5a 3e 57 20 82 bd fb 20 62 3e
       -0.3110662 0.2130329 -0.063538246 0.22082894
0000b0 aa 67 bc bc a1 80 16 bc 50 8a 5f bd 8b f5 a8 be
       -0.02299865 -0.009185941 -0.054575264 -0.32999834
0000c0 06 a9 1c be 7a d2 87 bd 72 a3 87 3d 5d dc 5f be
       -0.15298852 -0.06631942 0.066229716 -0.21861406
0000d0 5b b8 5d 3e 2e 74 c9 bd c4 73 05 be 85 36 c6 bc
       0.21652357 -0.09836613 -0.13032442 -0.024195919
0000e0 f1 dd cb 3e 67 e2 e4 3e d3 61 0a be d9 f6 4f 3c
       0.39817765 0.4470398 -0.1351388 0.01269313
0000f0 e0 62 cd bd 08 f0 fb 3d 90 7b 3a be 0e 6b 96 be
       -0.100286245 0.12301642 -0.18211198 -0.2937855
000100 b1 3b 22 be d5 e6 77 bd e0 5b 3a 3e 28 7d 34 bd
       -0.15843083 -0.060522873 0.1819911 -0.04406467
000110 2a 48 50 be c9 82 17 be d8 3a 9a 3e 6f 2b 98 3e
       -0.20340028 -0.14795984 0.3012302 0.29720637
000120 87 1a 4d be 48 3d 16 be 47 36 bf bc 64 d7 f0 bd
       -0.2002965 -0.14671814 -0.023341311 -0.117598325
000130 1f 50 cf 3c 09 dd 69 be a1 2f 12 be 4c 47 b9 3d
       0.02530676 -0.22838224 -0.14275981 0.09046802
000140 37 f6 ea 3b 98 bb 95 3e 6a c4 8f 3d ec b6 6c 3d
       0.0071704644 0.29244685 0.07019885 0.057791635
000150 ae 54 73 be 36 83 6f 3d 23 35 75 3d 6d 39 86 3d
       -0.23762771 0.058474742 0.05986513 0.06553922
000160 0c d4 21 be f5 c4 b4 3d 3f 7a a9 bd d6 b8 ef bd
       -0.15803546 0.08826629 -0.0827527 -0.117051765
000170 a9 2d ce bd a7 1f 07 be 59 2d 19 be 36 2e 15 3d
       -0.10067303 -0.13195668 -0.14958705 0.036421023
000180 7e ac 67 be 50 79 4f be 52 48 a9 3b 7c cf df 3c
       -0.22624394 -0.20261121 0.005166092 0.027320616
000190 f6 06 90 3d 0f 8d aa bd e6 47 c7 3d 2f d9 12 3e
       0.07032578 -0.08327686 0.097305104 0.14340661
0001a0 6f 97 8a 3e 7a 3b a0 3e 54 54 66 be 26 2c c5 3e
       0.2706866 0.31295377 -0.22493106 0.38510245
0001b0 f0 d7 eb be b0 62 56 bb d3 5c 7a be ce 1f fe 3e
       -0.46063185 -0.003271263 -0.24449472 0.4963364
0001c0 cf 4a 4a 3e 15 0f dd 3d ab 7c 1a be 99 50 43 be
       0.197551 0.10793892 -0.1508662 -0.19073714
0001d0 20 7b 1c 3e 87 18 57 3e 3f 7d e0 bb d4 9f e0 3d
       0.15281343 0.2100545 -0.006850868 0.10967985
0001e0 73 5a b6 bd 2e a5 9d 3c c2 d6 40 be 1f ed 46 3d
       -0.089039706 0.019243803 -0.18831924 0.04856598
0001f0 a3 09 b9 3c dd f9 15 bd d0 13 be bd 50 27 ff 3c
       0.022587603 -0.03661524 -0.09281123 0.031146675
000200 4f 42 07 3e 7e 20 7f 3d 2e e7 13 3e f0 1d be 3d
       0.13208888 0.062286846 0.14443657 0.09283054
000210 f5 5b 89 3e 0e 89 86 bd 34 4f 60 bd 56 c6 99 3e
       0.2682797 -0.0656911 -0.054763034 0.3003413
000220 e6 dd 11 be 3a be 8e 3e fc 80 1f bc 46 4d 12 3d
       -0.14244804 0.27879506 -0.009735342 0.035718225
000230 60 0a f9 be 71 0b c7 3d 11 b7 bd bc 0e e4 8e be
       -0.48640728 0.09718979 -0.023158582 -0.27908367
000240 5e 0a 01 be d6 27 81 bc f1 77 b5 bd 61 12 12 3e
       -0.12601611 -0.015766066 -0.08860768 0.14264823
000250 c8 41 e9 bb ba c1 0b 3e 9f 31 69 bc 1f a1 ef bc
       -0.0071184374 0.1364812 -0.014233022 -0.029251633
000260 2f f2 b2 3d 34 88 b9 3d ba f2 84 3d ed 54 ea 3d
       0.08737599 0.09059182 0.06491609 0.114419796
000270 f2 f7 63 be 41 ce c8 bd 8e 56 78 be 75 e8 41 3e
       -0.22262552 -0.09804965 -0.24251768 0.18936332
000280 12 ec 52 3d fe 7e 50 bc f0 a4 a1 bd 60 55 43 bd
       0.051494665 -0.01272559 -0.078927875 -0.04768884
000290 5a a6 06 be 17 fa 92 bd 1e 86 b6 3e 4b 69 a6 3d
       -0.13149396 -0.07176607 0.35649198 0.08125552
0002a0 eb 38 3d bd 7d 09 66 3d eb e8 88 bb 08 de f2 3d
       -0.04619686 0.056161392 -0.0041781566 0.11858755
0002b0 b3 b1 85 be 14 61 f3 3c e8 8f 39 be f1 66 59 be
       -0.26112136 0.029709376 -0.18121302 -0.21230675
0002c0 5a 2f aa be 94 c5 10 be 34 57 b9 bd 37 1c a2 bd
       -0.3323925 -0.1413787 -0.09049836 -0.07915538
0002d0 bd 4d 81 be b5 1e 9f 3c eb 54 5c 3e fd 18 ed 3d
       -0.25254622 0.019423822 0.21516769 0.11577032
0002e0 7c 1b 8c 3d e9 52 b3 be 74 8b d8 3e 34 d3 6e be
       0.0684118 -0.35024193 0.42293894 -0.23322755
0002f0 3e ec 46 be 5f fc cf bd 59 35 9b be e9 e5 25 bd
       -0.19426057 -0.10155558 -0.3031414 -0.040502463
000300 9c ce 1b 3e 0b 88 d4 3d 13 26 0f bd 31 ff 9d 3e
       0.15215534 0.10377511 -0.03494842 0.30858758
000310 ee 00 ae 3d a1 72 35 3e 42 04 38 3e a2 eb 1a be
       0.08496271 0.17719509 0.17970374 -0.1512895
000320 25 ae 8d bd 29 63 92 3e 8b b6 c5 bd 98 31 ff 3d
       -0.06917981 0.28591278 -0.09653958 0.12460631
000330 f0 e9 2a be cb 07 8b 3d e1 c2 de 3e f7 f4 80 bc
       -0.16690803 0.06788596 0.43508056 -0.015741808
000340 81 b9 04 3e 87 27 26 3e 35 02 3c be 76 80 a1 bd
       0.12961389 0.16226016 -0.18360217 -0.0788583
000350 64 35 c2 bd 29 b9 d4 3e a2 98 d9 3a 3e c1 20 3d
       -0.0948284 0.41547516 0.0016601274 0.03924679
000360 e1 30 0d be 5e 39 d8 bd f7 11 f8 3c b6 08 21 3e
       -0.13788177 -0.10557817 0.030282004 0.15725979
000370 a2 bc 7a 3c 32 bf b2 be 7b 30 26 be 62 9e 7b be
       0.015303763 -0.34911495 -0.16229431 -0.24572137
000380 41 0e 51 be 39 2f 05 bd 29 8e 43 3e db 04 0b bd
       -0.20415594 -0.03251574 0.19097199 -0.033940177
000390 81 ef 6f bd 0f be d5 bd 85 1b 1f 3e a8 6c 83 bd
       -0.058578018 -0.104366414 0.15537842 -0.06417209
0003a0 bc f2 c8 be 83 55 2a be 46 cf 56 bd be 0c d4 bd
       -0.39247692 -0.16634183 -0.052443765 -0.10353993
0003b0 6f 37 08 be 45 a5 05 3e c5 18 5b bd 4f 61 37 3e
       -0.13302396 0.13051327 -0.05349042 0.17908214
0003c0 f3 38 cb 3e 6e cc 84 be ca 41 0a be cc d2 d8 3d
       0.39691886 -0.25937217 -0.13501659 0.10587081
0003d0 82 5e 40 bd 5d 79 79 be a9 69 16 3d 4b 09 e3 bc
       -0.04696513 -0.24362703 0.03672186 -0.027714392
0003e0 33 67 86 bc e9 8e 40 3e 03 22 df bd 16 98 33 3e
       -0.016406631 0.18804516 -0.10895159 0.17538485
0003f0 c5 5d 94 3e a9 86 e3 bc ff 3c 33 3b 6b 03 54 3e
       0.2897779 -0.027774172 0.002734959 0.20704429

mlp_extractor.value_net.2.bias f4 [64]
000000 00 00 00 00 00 00 00 00 00 00 00 00 00 00 00 00
       0.0 0.0 0.0 0.0
000010 00 00 00 00 00 00 00 00 00 00 00 00 00 00 00 00
       0.0 0.0 0.0 0.0
000020 00 00 00 00 00 00 00 00 00 00 00 00 00 00 00 00
       0.0 0.0 0.0 0.0
000030 00 00 00 00 00 00 00 00 00 00 00 00 00 00 00 00
       0.0 0.0 0.0 0.0
000040 00 00 00 00 00 00 00 00 00 00 00 00 00 00 00 00
       0.0 0.0 0.0 0.0
000050 00 00 00 00 00 00 00 00 00 00 00 00 00 00 00 00
       0.0 0.0 0.0 0.0
000060 00 00 00 00 00 00 00 00 00 00 00 00 00 00 00 00
       0.0 0.0 0.0 0.0
000070 00 00 00 00 00 00 00 00 00 00 00 00 00 00 00 00
       0.0 0.0 0.0 0.0
000080 00 00 00 00 00 00 00 00 00 00 00 00 00 00 00 00
       0.0 0.0 0.0 0.0
000090 00 00 00 00 00 00 00 00 00 00 00 00 00 00 00 00
       0.0 0.0 0.0 0.0
0000a0 00 00 00 00 00 00 00 00 00 00 00 00 00 00 00 00
       0.0 0.0 0.0 0.0
0000b0 00 00 00 00 00 00 00 00 00 00 00 00 00 00 00 00
       0.0 0.0 0.0 0.0
0000c0 00 00 00 00 00 00 00 00 00 00 00 00 00 00 00 00
       0.0 0.0 0.0 0.0
0000d0 00 00 00 00 00 00 00 00 00 00 00 00 00 00 00 00
       0.0 0.0 0.0 0.0
0000e0 00 00 00 00 00 00 00 00 00 00 00 00 00 00 00 00
       0.0 0.0 0.0 0.0
0000f0 00 00 00 00 00 00 00 00 00 00 00 00 00 00 00 00
       0.0 0.0 0.0 0.0

action_net.weight f4 [45, 64]
000000 33 6b 74 b9 af b4 c0 ba 29 bf 27 bb 86 6a 46 3a
       -0.00023309588 -0.0014702285 -0.0025596118 0.0007568974
000010 ac a7 1e bb 0f 38 e9 3a ef 80 f8 3a 8c 31 03 3b
       -0.0024208827 0.0017793196 0.0018959324 0.0020018546
000020 1e ba 20 3b f0 97 60 ba 83 28 13 bb 6b fb 80 3a
       0.0024524997 -0.00085675623 -0.0022454567 0.0009840553
000030 25 ec 36 3a b0 db c8 ba dc f7 7d ba d4 b3 e4 39
       0.00069779373 -0.0015324261 -0.0009688118 0.0004362153
000040 c1 4b c7 ba 9b 8e e6 b9 f6 1b 26 3a c0 98 4b 38
       -0.0015205072 -0.00043975268 0.0006336564 4.854123e-05
000050 c0 5f 7a ba dd 75 03 3a 5b b7 c5 39 16 3c 19 3a
       -0.0009551011 0.00050148164 0.00037711379 0.00058454403
000060 4e d7 5c 3a ef 4e 42 ba 52 bb 00 3a 23 0a eb 39
       0.0008424417 -0.0007412275 0.00049107254 0.00044830245
000070 50 c1 9e b9 8e b2 e1 b9 8f c9 eb ba 1c 39 15 ba
       -0.00030280137 -0.00043048378 -0.0017989146 -0.0005692409
000080 fc dc af 39 ef 82 b2 ba 05 f8 7f 39 5e ab 52 ba
       0.00033543247 -0.0013619344 0.0002441109 -0.00080364
000090 76 1f 01 38 59 db be 3a 48 c9 13 ba d9 c4 01 b9
       3.0785297e-05 0.001456122 -0.0005637598 -0.0001237573
0000a0 25 ed d6 ba 5e 8d 10 3b f8 d1 a9 3a 86 74 f0 3a
       -0.0016397579 0.0022056918 0.0012956252 0.0018345274
0000b0 ca 21 ca 3a f8 f6 ac 3a 1e f1 cb 39 12 48 21 3a
       0.0015421447 0.0013196161 0.00038898824 0.0006152402
0000c0 fc ef 41 ba 01 bd 09 bb 1b db 88 3a 75 43 06 bb
       -0.0007398126 -0.0021017196 0.0010441275 -0.0020486985
0000d0 db 19 c1 b8 de 9e c4 b9 87 e4 aa ba dc e0 bb 39
       -9.207773e-05 -0.00037502398 -0.0013038077 0.00035834953
0000e0 05 f1 af 39 04 8f dc 3a 87 b8 e4 ba 86 de e1 39
       0.00033558175 0.001682729 -0.0017450013 0.00043081137
0000f0 c4 0e e2 ba 4d 74 8b b8 d9 ec ab 39 26 cc ef 3a
       -0.0017246832 -6.649699e-05 0.00032792127 0.0018295094
000100 05 ab 3e ba 1e 99 75 3a bd 87 ba ba 3c ab 77 ba
       -0.00072734087 0.00093688245 -0.0014231127 -0.0009447818
000110 c5 db b4 39 7c f3 02 3b 17 8d d3 ba e0 4d 9a b8
       0.00034496016 0.0019981554 -0.001614007 -7.3577976e-05
000120 2b 17 9c b9 90 92 02 b9 95 50 3e b9 be f7 ac 38
       -0.000297719 -0.00012452365 -0.00018149831 8.247745e-05
000130 9d de b2 38 dc 6b b2 ba e6 df 0e 3a 89 4c 66 3a
       8.5291664e-05 -0.0013612467 0.00054502336 0.00087852083
000140 dd df a6 b9 56 46 ad ba d5 f5 f6 3a 0b c5 f8 b9
       -0.00031828778 -0.0013219814 0.0018841574 -0.00047449055
000150 2e 14 26 3a 90 a5 ba ba f7 78 a5 ba c9 22 da 3a
       0.00063354045 -0.0014240015 -0.0012624551 0.0016642447
000160 26 22 33 39 f1 47 02 bb a9 a2 15 b6 38 a1 e0 3a
       0.00017083492 -0.0019879306 -2.229741e-06 0.0017137891
000170 a9 4a 34 39 17 3c d6 3a 24 12 44 ba 59 c9 38 3a
       0.00017193951 0.0016344812 -0.000747951 0.0007049046
000180 b2 6d 8b 3a ce 72 66 3b 0d 09 9a ba 03 43 82 ba
       0.001063755 0.0035163644 -0.0011751965 -0.0009938184
000190 5c bb ae 3a 2b 5b 57 39 66 25 49 39 53 34 50 b9
       0.0013330984 0.0002053796 0.00019182786 -0.00019855918
0001a0 9c 29 8d 39 f2 88 a5 39 ce 00 83 3a 97 35 94 b9
       0.00026924617 0.00031573285 0.0009994747 -0.00028268687
0001b0 e9 db c1 ba 35 84 3d bb 2e 53 a5 3a b5 29 43 ba
       -0.001479027 -0.0028917913 0.001261329 -0.00074448745
0001c0 87 48 8d 39 d5 00 6a 3a d4 4a 65 3a fc 0a e7 ba
       0.00026947653 0.00089265156 0.0008746807 -0.0017627175
0001d0 be 2c 8b ba 09 c3 2e ba f2 ca 35 3a 80 7d 70 3a
       -0.0010618193 -0.0006666636 0.0006934843 0.00091739744
0001e0 5b e9 4a bb 92 23 a7 ba d5 6f c1 ba 56 44 85 ba
       -0.0030961845 -0.001275169 -0.001475806 -0.001016746
0001f0 c9 b5 b5 3a 3e 66 fd 36 27 a9 1e 3b 64 d0 91 3a
       0.001386338 7.55189e-06 0.002420971 0.0011124727
000200 d7 31 de b9 00 51 6d 3a 8f 22 6c 38 bb 21 36 39
       -0.00042380273 0.00090529025 5.629897e-05 0.00017369438
000210 2e 36 c6 ba e7 d5 51 ba 0e 80 ae 3a 4c 09 00 39
       -0.0015122348 -0.0008004591 0.001331331 0.00012210495
000220 f9 18 46 3a 77 d0 18 3a 52 5e 40 3a 98 a9 4a 3b
       0.0007556822 0.00058294035 0.00073382736 0.003092384
000230 17 52 4d 3a 5b 21 d6 3a 64 81 e1 3a 90 5b a6 ba
       0.0007832362 0.0016336845 0.0017204699 -0.0012692083
000240 18 4b 96 b9 a3 67 eb 3a 32 b0 06 3b d2 0e a5 ba
       -0.0002866618 0.0017959963 0.0020551798 -0.0012592918
000250 9d ab 13 bb 61 72 4d ba 7e b0 9f 3a ac c4 ee ba
       -0.002253271 -0.0007837173 0.0012183336 -0.0018216572
000260 a7 2c a9 3a b3 44 57 39 78 18 9c b9 7e dc 18 3b
       0.0012906984 0.0002052959 -0.0002977287 0.0023324783
000270 7e 93 1d 3a 26 0e 64 3a f7 31 5e ba 61 64 17 3a
       0.0006011053 0.0008699618 -0.0008476073 0.00057751505
000280 20 d9 cb 3a fe 7d 69 ba 77 bb 80 b9 f4 db 9e 3a
       0.0015552379 -0.0008907019 -0.00024553735 0.0012119994
000290 72 4d 96 ba 2e dc d9 3a 45 6c 1b 3a e2 5c 8c 3a
       -0.0011467172 0.0016621405 0.0005928914 0.0010708834
0002a0 dd 9a 91 3a 8b 1b 54 3a 2f 6b 0f 3a cd 46 0b 3b
       0.0011108775 0.00080912624 0.00054709887 0.0021251917
0002b0 74 df 62 ba 60 51 35 bb 25 5b 5c ba b5 c4 1b bb
       -0.0008654513 -0.0027666911 -0.00084059156 -0.002376837
0002c0 da 55 13 3b a0 39 80 ba 15 00 15 ba b8 69 ca 39
       0.0022481591 -0.0009782799 -0.0005683911 0.0003860721
0002d0 91 f6 a2 ba 64 2f 18 39 06 e3 21 ba 22 06 c4 b9
       -0.0012433102 0.00014513504 -0.0006175492 -0.00037388603
0002e0 97 91 f3 39 e3 05 9c b9 62 6b df 3a be 06 85 ba
       0.00046457045 -0.00029759025 0.0017045552 -0.0010149104
0002f0 52 5c 1d 3a 57 ba e3 36 85 67 86 b9 45 42 98 ba
       0.00060028315 6.78682e-06 -0.000256356 -0.001161643
000300 4a 02 f6 3a f5 a2 e5 39 e9 3c 71 b9 61 79 0c bb
       0.0018768993 0.00043799696 -0.00023006242 -0.0021434652
000310 e0 35 1a b8 b1 6d 02 ba 2a 0f 81 3a 57 10 04 3b
       -3.6766636e-05 -0.0004975452 0.0009846438 0.002015134
000320 77 1b 81 39 d3 c9 20 3b 17 09 7d 3a be 74 02 bb
       0.0002462526 0.002453436 0.00096525386 -0.001990601
000330 36 15 90 3a 07 aa 70 3a 53 df b8 39 29 46 ea 3a
       0.001099265 0.00091806095 0.00035261604 0.0017873693
000340 1b 62 8c b9 7d da 51 39 80 83 e2 3a 4e 30 a0 b9
       -0.00026775975 0.00020013186 0.0017281622 -0.00030553568
000350 4a b0 6a ba 69 65 90 b9 ca 95 e1 ba 19 55 7e b8
       -0.0008952661 -0.00027541377 -0.0017210778 -6.0637572e-05
000360 d3 86 9b ba 92 91 c8 3a 32 10 67 3a 85 27 47 b9
       -0.0011865742 0.0015302172 0.0008814364 -0.00018992841
000370 1a e3 06 b9 54 88 04 39 42 38 8f 3a 8f cd c3 ba
       -0.00012863838 0.00012639287 0.00109268 -0.001493858
000380 ab 85 4d ba 58 25 e8 b9 14 f0 1f ba 9f 82 15 bb
       -0.00078400475 -0.00044278312 -0.0006101143 -0.0022813452
000390 dd 5b 06 3b bb f3 0d b9 c5 50 b1 ba 67 e4 a7 ba
       0.0020501532 -0.00013537605 -0.00135281 -0.0012809158
0003a0 bd 53 0c bb e9 e2 2d ba a0 04 1f 3b 02 fe 0e 3a
       -0.0021412217 -0.00066332385 0.0024264231 0.000545472
0003b0 af cb 99 ba 7b 5d 6d ba 68 71 00 bb f2 9e 2c ba
       -0.0011733676 -0.0009054762 -0.0019598845 -0.0006584964
0003c0 cc c4 96 ba f6 89 a0 ba 61 54 97 ba 41 58 14 39
       -0.0011502742 -0.0012248147 -0.0011545533 0.00014147257
0003d0 34 c2 6b 39 58 d9 b8 3a 98 bd 60 b7 72 0c 72 3a
       0.00022483693 0.001410286 -1.3395584e-05 0.0009233422
0003e0 a4 73 0a 3b 9e e3 d9 39 00 2e 27 3a b2 d5 36 ba
       0.0021126056 0.00041559053 0.0006377399 -0.0006974592
0003f0 0b 0c 35 b7 36 91 07 39 de e8 34 3b 47 a2 e1 ba
       -1.0791245e-05 0.00012928699 0.002760462 -0.00172145

action_net.bias f4 [45]
000000 00 00 00 00 00 00 00 00 00 00 00 00 00 00 00 00
       0.0 0.0 0.0 0.0
000010 00 00 00 00 00 00 00 00 00 00 00 00 00 00 00 00
       0.0 0.0 0.0 0.0
000020 00 00 00 00 00 00 00 00 00 00 00 00 00 00 00 00
       0.0 0.0 0.0 0.0
000030 00 00 00 00 00 00 00 00 00 00 00 00 00 00 00 00
       0.0 0.0 0.0 0.0
000040 00 00 00 00 00 00 00 00 00 00 00 00 00 00 00 00
       0.0 0.0 0.0 0.0
000050 00 00 00 00 00 00 00 00 00 00 00 00 00 00 00 00
       0.0 0.0 0.0 0.0
000060 00 00 00 00 00 00 00 00 00 00 00 00 00 00 00 00
       0.0 0.0 0.0 0.0
000070 00 00 00 00 00 00 00 00 00 00 00 00 00 00 00 00
       0.0 0.0 0.0 0.0
000080 00 00 00 00 00 00 00 00 00 00 00 00 00 00 00 00
       0.0 0.0 0.0 0.0
000090 00 00 00 00 00 00 00 00 00 00 00 00 00 00 00 00
       0.0 0.0 0.0 0.0
0000a0 00 00 00 00 00 00 00 00 00 00 00 00 00 00 00 00
       0.0 0.0 0.0 0.0
0000b0 00 00 00 00
       0.0

value_net.weight f4 [1, 64]
000000 a0 50 db bd 9b 6e 00 be a3 1a 98 3d 18 14 9d 3d
       -0.107087374 -0.12542193 0.074269556 0.07669848
000010 17 07 3a 3e 18 3a 8f 3d 80 f1 2f bd a4 53 68 3d
       0.18166767 0.069935024 -0.04295492 0.05672039
000020 e4 c6 89 3e 94 d1 23 be 0d 6b ad 3d b0 89 43 bd
       0.26909554 -0.15997916 0.08467684 -0.04773873
000030 7e a3 fa 3d dc c8 9a bd 87 83 83 3d ed f5 0f be
       0.12238215 -0.07557842 0.06421571 -0.14058657
000040 41 bf 81 be 47 80 bb be 03 0d e5 bc 4c 3d 85 be
       -0.25341228 -0.36621305 -0.027960306 -0.26023328
000050 eb 92 9a bc 8e 6e 02 3d b5 4b c6 3d d5 1c 54 3e
       -0.018868884 0.031843714 0.09682409 0.20714124
000060 4e 02 be bd c0 df f8 3d 19 88 3b 3d ea f7 a3 3d
       -0.09277783 0.12152052 0.04578409 0.0800627
000070 c6 eb b4 3d 87 43 80 bd 77 d0 f5 3c 69 56 c7 3d
       0.08834033 -0.0626288 0.03000663 0.09733278
000080 5c 34 2b b9 21 90 2d be 25 b9 dd bd 3a e2 1b 3d
       -0.00016327336 -0.16949512 -0.10826329 0.038057543
000090 b4 8a 84 ba 41 cd 75 3d ef d9 98 bd 81 01 87 bd
       -0.0010112138 0.0600102 -0.074634425 -0.06592084
0000a0 2d d1 83 be a1 25 5e be c7 9b 26 3e b3 d4 d8 3d
       -0.25745526 -0.21694042 0.16270362 0.10587444
0000b0 57 3a 7a bb 08 c7 dd 3d 2d f6 28 3e f4 8b cc bd
       -0.0038181746 0.10828978 0.16500159 -0.099876314
0000c0 c9 a5 21 3d 2e 50 f1 3d 6a ec 1e 3d ab 53 8d 3c
       0.039464746 0.11782871 0.03879968 0.01725181
0000d0 49 ad ce bd bb a0 c0 bd 67 21 92 bd 2d 00 27 3e
       -0.10091645 -0.09405657 -0.07135277 0.16308661
0000e0 e5 79 ec bc 54 8e a6 3d 0f 3b f9 3d 57 7d 1c 3d
       -0.028866718 0.08132616 0.12169468 0.03820547
0000f0 3d 14 1b bd 5e c1 b5 3d a0 1c 82 bd a3 d7 35 3e
       -0.037861098 0.088747725 -0.06353116 0.1775804
