models/a2c/ronda_26/step_4250000/policy_state.pt (torch, 607176 bytes, 41 tensors)

mlp_extractor.policy_net.0.weight f4 [64, 273]
00000000: 320b 8c3d 6ffc 18be 98fc e6bd 3059 363e
00000010: 170d b33c 5726 35bd 47a3 2f3d 8248 61bd
00000020: 2a0c 913c 19b9 61bd 1d70 6e3d 0abc ae3c
00000030: f562 ca3d 081f ebbb fbb2 613c 3e6c 8abd
00000040: 1486 6fbd e0c5 52be f795 573c 7f83 103d
00000050: 8f39 973c 1c75 113c db0d 14be 0f6e febd
00000060: 9007 df3a 7d1f 833d 68bf 68bc fa52 ffbd
00000070: d666 6c3c e230 1cbd 6f99 e43d 640c 303e
00000080: 41ef 2bbd e3c0 c0bd eaab 38be f588 b53d
00000090: afa9 e1bd 26a4 083d 4b44 18bd a0ba 5fbd
000000a0: a173 46bd 6eea 9c3d f349 bb3d ede3 cebd
000000b0: 94ee a2bc 3a2c 2cbc ca39 04be c896 923c
000000c0: d5ed 013c 28cc 55bd c820 5a3d dcdc e0bd
000000d0: 362b 523d 0c54 fb3c c971 bbbd a517 b43d
000000e0: 420c 233d a606 133d 46b2 a1bd ef4d 33bc
000000f0: 53d6 04be 77c4 233d 93d6 dfbd a94a ef3c
00000100: 1fd9 17bc aa14 853d 2238 4abd 1edd e8bd
00000110: 485b 013d 704b 1dbd 01a4 e3bb 846c 13bd
00000120: 690f 0fbe e0a3 c9bc 3b45 6ebc 2560 b8bd
00000130: 384f b63d cce5 53bd ee5e 2f3e 3f4c d93c
00000140: 768d e93c d51c b9bd cd25 c0bd 3afa 8b3d
00000150: 14b3 b13d f7e4 2e3d e8b4 473c c9e6 113e
00000160: 6ce6 77bc ad2b 8bbd e3bd e8bb d352 2e3d
00000170: 0114 0f3c 6580 d73d 2162 0bbd bd57 4bbd
00000180: b983 b1bd ea1c e6bd ba81 14bd be2c 293d
00000190: 0c5e f4bd ff86 57bd 9a0c bc3c 71e8 793c
000001a0: 461e ce3c be5c c7bb 0c0a 10be 6ab3 063e
000001b0: 09bc 3abc d69b c4ba d213 f8bc 798b b53b
000001c0: 2d83 01be 7f87 33bd 8bac d73d 4d01 3e3b
000001d0: 0344 6e3d 28ad bebd fc43 8bbd 501f 03be
000001e0: 0fea e2bc 5568 3bbb a486 533e 6e51 583d
000001f0: 26d1 623d d07d d83d f934 2e3c 722c 0a3d
00000200: f776 963d 4b53 273d 1fe6 d93a 07da 363c
00000210: 5f2f 8ebb 6c93 be3d 2b4d cd3d dff4 fa3d
00000220: 8f54 6abd 877e 26be 62d2 103d 2962 90bd
00000230: 335a 21bd a3c3 0e3d 9ba4 a93d 76e8 2abc
00000240: 3c9a 3b3e ba47 97bc 000f 15bd ff00 a23a
00000250: 2257 8d3b b0dc b7bd b06b 9d3d 439a 74bd
00000260: 7a28 bcbd ef49 d93c ef2c 87ba 2276 59bd
00000270: 6563 113d fcfb 8abd 5149 01bd 0ac2 04be
00000280: d95e 793d 1c52 1c3e f6c9 0e3e af7d 0cbe
00000290: 9508 a23c 3ff1 65be c5de f13d de23 04be
000002a0: 5ed5 0cbe 8cca 9fbc dcca f93d 62de 16bc
000002b0: 28c8 8ebd 3263 213c 5a21 bd3c 48fd 473c
000002c0: 8637 cabd ebbc 8e3d 1d84 79bd d019 913d
000002d0: d745 163d 8b1c 5fbe 7950 913d 8e4b c5bd
000002e0: 799a 71bd 90a0 1a3e 4e63 15be 8b18 c03d
000002f0: f719 8d3c 7003 b63a c274 07be 642f dbbd
00000300: 934d d2bd 070d 15bd 8cc2 40bd 3b85 df3d
00000310: 6824 19bd 9000 84bd feb0 513d 9e61 c1bd
00000320: b1e7 843d 6ce3 72bd 1260 dabd c848 ee3c
00000330: 3159 fe3c 9a9f 313e dcea 823d 0e78 54bd
00000340: 1680 b13d e6ef 853d db41 92bd 6b26 09bd
00000350: 45c1 81bd be15 c53c 4ac9 75bd d61c 3bbe
00000360: 0c65 453c cc20 4d3d ec6c c73d aaf8 bd3c
00000370: 97db 88bd 8033 693e 10e3 81bd e6f7 bfbb
00000380: f3c6 b1bd 26a6 3abe 58e2 79bc cd1e dcbc
00000390: ce6b 11be 0cda d53d 4947 843c e592 8a3c
000003a0: 8e1d 1e3d 7729 5bbd bfb4 153d 6e36 0ebe
000003b0: 9fd4 92bd b4ef f3bd a32f e13d a5eb 723b
000003c0: 8d64 1ebb ae4b c0bd 668e 6c3e 37a0 bb3d
000003d0: 85d7 a7bd 3cf2 cabd 09f8 a73d 1dc9 943c
000003e0: e14c a73d fc2e 3ebd 789c 713d ed71 c7bd
000003f0: ba92 023d c7ed 93bd 0ef8 0ebe 1640 6e3d
0.06838073 -0.14940046 -0.11278647 0.1780746 0.021856828 -0.044226017 0.042880323 -0.05500079
0.017705996 -0.055108164 0.05821239 0.021329898 0.09882156 -0.00717533 0.013775582 -0.06758927
-0.058477476 -0.20583296 0.013158313 0.035281654 0.018460063 0.008878019 -0.1445841 -0.12423336
0.0017015804 0.0640249 -0.014205791 -0.124669984 0.014428815 -0.038132556 0.11162078 0.17192227
-0.041976217 -0.0941179 -0.1803433 0.08864013 -0.11018693 0.03335967 -0.037174504 -0.05462134
-0.048450116 0.076619014 0.09144964 -0.10102067 -0.019889154 -0.010508591 -0.1291267 0.017894164
0.007930239 -0.05219665 0.05325392 -0.109796256 0.05131074 0.030679725 -0.09152562 0.08793572
0.03980661 0.035895012 -0.07895331 -0.010943874 -0.12972383 0.039982285 -0.10929599 0.029210405
-0.009268074 0.06498082 -0.04936994 -0.113703 0.031581193 -0.03840202 -0.006947041 -0.03599216
-0.13970722 -0.024614275 -0.014542873 -0.09002713 0.089018285 -0.051732823 0.17126057 0.026525615
0.028509837 -0.090387024 -0.0938221 0.06834836 0.086767346 0.042698827 0.0121891275 0.14248194
-0.01513062 -0.0679544 -0.0071027144 0.042559456 0.008732797 0.10522536 -0.03402913 -0.04964422
-0.08667702 -0.11235984 -0.03625653 0.041302435 -0.119320005 -0.052618977 0.022955228 0.015253172
0.02516092 -0.006084054 -0.14066333 0.13154379 -0.01139737 -0.0015000056 -0.030282889 0.005540308
-0.12647696 -0.04383039 0.10530957 0.0028992475 0.05817033 -0.09310371 -0.06800076 -0.12804914
-0.027699498 -0.0028596122 0.2065683 0.052812032 0.05537524 0.10570872 0.010632747 0.033733793
0.073469095 0.04085092 0.0016624368 0.01116038 -0.004339143 0.09305462 0.10024484 0.12253737
-0.057209548 -0.16259204 0.035356887 -0.070499726 -0.03939266 0.034854542 0.08283349 -0.0104314
0.18320554 -0.01846682 -0.03639126 0.0012359916 0.0043133656 -0.0897764 0.076865554 -0.059717428
-0.09187408 0.026524512 -0.0010313074 -0.053091176 0.03549518 -0.067863435 -0.03156406 -0.12964645
0.06088147 0.15265697 0.1394423 -0.1371982 0.019779483 -0.2245531 0.11810068 -0.12904307
-0.13753268 -0.019505762 0.121968955 -0.009208294 -0.069717705 0.00985031 0.023087192 0.012206383
-0.098738715 0.06969627 -0.06091701 0.070850015 0.0366877 -0.21788232 0.07095427 -0.096335515
-0.058985207 0.15100312 -0.14588663 0.09379681 0.017224295 0.0013886523 -0.13228133 -0.107023984
-0.10268702 -0.036389377 -0.047060534 0.109140836 -0.037388235 -0.0644542 0.051194184 -0.09442447
0.06489504 -0.059298918 -0.10662855 0.02908744 0.03104839 0.1734604 0.06392452 -0.051872306
0.086670086 0.065398976 -0.07141467 -0.033483904 -0.06335691 0.024058219 -0.060006417 -0.18272719
0.012048017 0.050080106 0.09737572 0.023189861 -0.066825084 0.22773552 -0.06342137 -0.005858409
-0.08680525 -0.18227443 -0.015251718 -0.026870156 -0.1420128 0.1044198 0.016147273 0.016915748
0.038602404 -0.05350634 0.036549326 -0.13887951 -0.071694605 -0.11910954 0.10995414 0.0037066725
-0.002416882 -0.09389435 0.23101196 0.09161418 -0.08195404 -0.09909484 0.08201606 0.018162305
0.0816896 -0.046431527 0.05898711 -0.097385265 0.03187821 -0.07223087 -0.13961813 0.058166586

mlp_extractor.policy_net.0.bias f4 [64]
00000000: 0000 0000 0000 0000 0000 0000 0000 0000
00000010: 0000 0000 0000 0000 0000 0000 0000 0000
00000020: 0000 0000 0000 0000 0000 0000 0000 0000
00000030: 0000 0000 0000 0000 0000 0000 0000 0000
00000040: 0000 0000 0000 0000 0000 0000 0000 0000
00000050: 0000 0000 0000 0000 0000 0000 0000 0000
00000060: 0000 0000 0000 0000 0000 0000 0000 0000
00000070: 0000 0000 0000 0000 0000 0000 0000 0000
00000080: 0000 0000 0000 0000 0000 0000 0000 0000
00000090: 0000 0000 0000 0000 0000 0000 0000 0000
000000a0: 0000 0000 0000 0000 0000 0000 0000 0000
000000b0: 0000 0000 0000 0000 0000 0000 0000 0000
000000c0: 0000 0000 0000 0000 0000 0000 0000 0000
000000d0: 0000 0000 0000 0000 0000 0000 0000 0000
000000e0: 0000 0000 0000 0000 0000 0000 0000 0000
000000f0: 0000 0000 0000 0000 0000 0000 0000 0000
0.0 0.0 0.0 0.0 0.0 0.0 0.0 0.0
0.0 0.0 0.0 0.0 0.0 0.0 0.0 0.0
0.0 0.0 0.0 0.0 0.0 0.0 0.0 0.0
0.0 0.0 0.0 0.0 0.0 0.0 0.0 0.0
0.0 0.0 0.0 0.0 0.0 0.0 0.0 0.0
0.0 0.0 0.0 0.0 0.0 0.0 0.0 0.0
0.0 0.0 0.0 0.0 0.0 0.0 0.0 0.0
0.0 0.0 0.0 0.0 0.0 0.0 0.0 0.0

mlp_extractor.policy_net.2.weight f4 [64, 64]
00000000: 634a 77bd e65c 41bd d1cb 70bc 642b d73c
00000010: dfa8 debd 2eb0 2dbe d9f5 3b3e a587 65be
00000020: 1d81 0dbd 4a67 79be ae0d 403e b0d8 eb3c
00000030: 082d 4fbd d682 dfbd 9094 053e 8e5c 803d
00000040: 5598 1ebe ca50 0c3e 6abe 84bd 1461 3cbe
00000050: af77 923e 8b7b ac3e c9e5 1dbe df70 2e3d
00000060: 8d13 d0be bb43 9cbe 30d7 1ebe 95d7 c23c
00000070: 42c4 cfbd 36bc 2f3e ab21 6f3e f07a 1c3e
00000080: 0ad3 5e3c aa86 8fbc f26f 67be fab5 993d
00000090: f1b2 a5bd ee3b 543e 532f d13e 47dd d73c
000000a0: 1dd3 02bd 7d6d 343d 1191 113e ec27 2dbc
000000b0: 7ca1 173d 2caa 53bd 453f 48be a809 9f3d
000000c0: b938 76be 17f8 cebd 0275 0ebe fb3a 20be
000000d0: 7514 623e 8ab7 0c3f 9b36 04be ef14 b8bd
000000e0: db2a c03d 4502 183e e9e3 d33d 8744 5bbe
000000f0: b169 1dbc 8d65 5c3e 7abf 303e 9723 46be
00000100: 8f18 463e 8c72 f9bd 7340 87be 411e 573c
00000110: 0722 d43c b20b 5c3d f030 0a3d 2eae 8ebe
00000120: f361 8abd c545 42be 3df4 20be 272a 75be
00000130: c66f 38bd eeb9 8fbc ce93 583e 5fe1 b43e
00000140: c211 d63d c237 373d c42e 32bc a2ca d2bc
00000150: 7174 bebe 01b8 a7bd 7c4f 01be dcc4 833b
00000160: a186 233d 862c 9c3c 6355 71bd df2f 123e
00000170: 830f 613e cf66 4ebd 88bc 90be cdbf 013e
00000180: 1065 8e3d 808b 3dbe 6fb2 e13c bb63 abbc
00000190: 61eb e1bd 3628 5e3e e0ed c6bb 37be b2bc
000001a0: 8842 8a3e 60e5 7abe 7d3a 26be 4f72 c73d
000001b0: 8334 da3e 25d0 a43d 44d4 833e 8978 f5be
000001c0: 9c2b 73be 05d0 55be bb4d c7bd 84cd 683e
000001d0: e230 693d c8dd 713d 9309 1abe bd9f 59be
000001e0: 9547 0dbe b95b 09bd 8770 423d b6a0 f5bc
000001f0: b1af dabd d413 36be c9b1 693b 43af a0be
00000200: fee9 5f3c ca62 103e 5d26 283d 0273 543d
00000210: 6cc8 243d ec3d 98be 5143 ad3e 7ad7 c63d
00000220: c362 f63e 60d5 a93d 53c1 ffbd 96b2 03be
00000230: 8b98 02bd 0d3c 103e aed7 fb3d 89af 3a3d
00000240: f667 a73e 5bc1 84be 2bb3 9c3d 7b19 c13c
00000250: 51e2 58bd 8037 43bd 44c7 073d e7f6 27bd
00000260: 5711 29bd d887 873d 2434 e5ba 96d4 ca3e
00000270: bcf1 2bbe aa8b 833d e336 133e c5b8 c43d
00000280: 00e1 a43d 9975 5a3e c8ea e43d ff03 a6bc
00000290: 3103 473e d4af bc3e 7d9d 773d 20f5 4ebd
000002a0: ec35 bc3e 18c1 c1bd 6f46 773e 15cf adbe
000002b0: 0b2a d2bd f3c7 8d3e c103 b4bd c4e3 8cbc
000002c0: abaf 03bc 3431 413e f800 233e 68b1 02be
000002d0: 48c1 1a3d de92 d8bd 3722 5abd ee3d d0bc
000002e0: 0d8e 133d 81d7 233e d88d e5be 2329 80bd
000002f0: 3b6f 263e 8269 35bd 9c47 4b3a 1dcb 2bbe
00000300: 88c4 35bb a102 6c3d 545d f73d 1574 1f3e
00000310: 23bd a6be fdd6 923e d777 373d 685f acbe
00000320: 4f20 463e fbd1 16be 6659 b03d 385a a4bd
00000330: 0e1f 8bbe 19f5 7ebd 50d4 573e d25a 173e
00000340: cf9c 33be 4385 91bd 59a9 a93d 723b e13d
00000350: 44cd 843d 48dd 7d3e ca2d 1a3e b9db aa3e
00000360: 2581 973d e054 1d3e 46c1 d1be 70b5 48be
00000370: b26d b8bd b611 bbbd c09b c4bd 97fd fd3c
00000380: 5012 5d3e baab c8bd 947d a63c b2c4 973a
00000390: 78a4 3c3e 0ef6 53be 5be7 b8bd bd32 293e
000003a0: 8d11 e33d 4f52 87bd 2836 38be e8cc c43d
000003b0: 1bdd 81be a8ee ba3d d14e d03d cc0e 08be
000003c0: 4f78 fd3d fe2e 5cbe 3080 c13d b000 1bbe
000003d0: 4d99 563d 781a 6cbc e5ed 683e e8f8 cf3e
000003e0: 0483 b13d 98ab 37be 5cc9 cdbe aafb 203d
000003f0: 0213 d53c a157 663e 9b3b ab3c 1e4f 23be
-0.060373675 -0.047207735 -0.014697031 0.026265807 -0.10872053 -0.16961738 0.18355502 -0.22415026
-0.03454696 -0.24355808 0.18755218 0.028789848 -0.050580055 -0.10913627 0.13044953 0.062676534
-0.15487798 0.13702694 -0.06481631 -0.18396407 0.28606936 0.33688006 -0.15419687 0.04258811
-0.40639916 -0.30520424 -0.15511775 0.023784438 -0.10144855 0.1716164 0.23352687 0.15281272
0.01360012 -0.017520268 -0.22601297 0.075054124 -0.08090771 0.20725986 0.40856418 0.02635063
-0.031939615 0.04404973 0.14215495 -0.0105686 0.037019238 -0.05167596 -0.19555385 0.07765514
-0.24045075 -0.10105913 -0.13911822 -0.156475 0.22078116 0.5496756 -0.12911455 -0.08988368
0.09383174 0.14844616 0.10346205 -0.2141286 -0.009607718 0.21523114 0.17260543 -0.19349514
0.19345306 -0.12180051 -0.26416358 0.013129772 0.025895132 0.05372209 0.033738077 -0.27867264
-0.067569636 -0.18971927 -0.1571817 -0.23941861 -0.04502847 -0.017544713 0.21150133 0.35328194
0.10452606 0.04473091 -0.010875408 -0.025731388 -0.37198213 -0.08189393 -0.12627977 0.00402127
0.039923314 0.0190642 -0.05891932 0.14276074 0.21978574 -0.050391015 -0.28268838 0.12670822
0.0695287 -0.18510246 0.027550904 -0.020921579 -0.11031223 0.21695027 -0.0060708374 -0.021819217
0.27003884 -0.24501562 -0.16233249 0.097385995 0.42618188 0.08047513 0.25747883 -0.47943524
-0.23747104 -0.20880134 -0.09731623 0.22734648 0.056931384 0.059049398 -0.15042715 -0.21252342
-0.13796838 -0.03353474 0.047470596 -0.02998386 -0.10678042 -0.17781001 0.0035658947 -0.31383714
0.013666628 0.14100185 0.04105221 0.051867492 0.0402302 -0.29734743 0.3384042 0.09709068
0.48122224 0.08292651 -0.124880455 -0.12861094 -0.031883758 0.14085408 0.12296997 0.04557756
0.32696503 -0.2592877 0.07651361 0.02357172 -0.052950207 -0.04766035 0.03314902 -0.04100695
-0.041276302 0.06617707 -0.0017486853 0.39615315 -0.16791433 0.06423123 0.14376406 0.096055545
0.08050728 0.21333922 0.111775935 -0.020265577 0.19434811 0.36852896 0.060452927 -0.05052674
0.3675989 -0.09460658 0.24147962 -0.33947054 -0.10261925 0.27691612 -0.087897785 -0.01719845
-0.008037488 0.18866426 0.15918338 -0.12762988 0.037781984 -0.10574888 -0.053255286 -0.025420155
0.036024142 0.16000177 -0.4483478 -0.06257846 0.16253369 -0.044290073 0.0007754506 -0.167767
-0.002773555 0.057619695 0.12078348 0.15571626 -0.32566175 0.28679648 0.044792023 -0.3366654
0.19348262 -0.14728539 0.086108014 -0.0802502 -0.2717213 -0.062245462 0.21077085 0.14780739
-0.17540286 -0.07105496 0.082842536 0.109976664 0.06484464 0.24791443 0.1505653 0.3337076
0.07397679 0.15364408 -0.40967768 -0.19600463 -0.09005298 -0.091342375 -0.096000195 0.03100471
0.21589017 -0.09798379 0.020323552 0.0011579006 0.18422115 -0.20699331 -0.090285026 0.16523261
0.11087332 -0.06607496 -0.17989409 0.09609395 -0.25364003 0.09127551 0.10171283 -0.13286895
0.12376463 -0.21502301 0.09448278 -0.15136981 0.052392293 -0.0144106075 0.22747 0.40619588
0.08667567 -0.17936552 -0.40192688 0.039302506 0.02601004 0.22494365 0.020902446 -0.1594815

mlp_extractor.policy_net.2.bias f4 [64]
00000000: 0000 0000 0000 0000 0000 0000 0000 0000
00000010: 0000 0000 0000 0000 0000 0000 0000 0000
00000020: 0000 0000 0000 0000 0000 0000 0000 0000
00000030: 0000 0000 0000 0000 0000 0000 0000 0000
00000040: 0000 0000 0000 0000 0000 0000 0000 0000
00000050: 0000 0000 0000 0000 0000 0000 0000 0000
00000060: 0000 0000 0000 0000 0000 0000 0000 0000
00000070: 0000 0000 0000 0000 0000 0000 0000 0000
00000080: 0000 0000 0000 0000 0000 0000 0000 0000
00000090: 0000 0000 0000 0000 0000 0000 0000 0000
000000a0: 0000 0000 0000 0000 0000 0000 0000 0000
000000b0: 0000 0000 0000 0000 0000 0000 0000 0000
000000c0: 0000 0000 0000 0000 0000 0000 0000 0000
000000d0: 0000 0000 0000 0000 0000 0000 0000 0000
000000e0: 0000 0000 0000 0000 0000 0000 0000 0000
000000f0: 0000 0000 0000 0000 0000 0000 0000 0000
0.0 0.0 0.0 0.0 0.0 0.0 0.0 0.0
0.0 0.0 0.0 0.0 0.0 0.0 0.0 0.0
0.0 0.0 0.0 0.0 0.0 0.0 0.0 0.0
0.0 0.0 0.0 0.0 0.0 0.0 0.0 0.0
0.0 0.0 0.0 0.0 0.0 0.0 0.0 0.0
0.0 0.0 0.0 0.0 0.0 0.0 0.0 0.0
0.0 0.0 0.0 0.0 0.0 0.0 0.0 0.0
0.0 0.0 0.0 0.0 0.0 0.0 0.0 0.0

mlp_extractor.value_net.0.weight f4 [64, 273]
00000000: 66c3 c33d 4fd1 ee3b ff3b 3fbc aa5c 3b3c
00000010: 7d74 fa3c ba89 a03d 0f7d b83b 4997 c6bd
00000020: 796d 35bd e443 153e 5366 c1bd d80c f83c
00000030: d37b c2bd daee 843d ddb6 cb3d 88de 27be
00000040: bcb7 293d fbd4 db3a d27b 30bd b769 e23d
00000050: e7fc 213e 7d97 d63c a6ec 35bd a825 0cbd
00000060: 694a 553d 96eb eabc 3ba1 d93d 0749 1c3b
00000070: b8e7 41bd 8bb9 a13c 683d 693e 486f a6bd
00000080: d26f 18be 9944 c73d 7478 153c 9b18 f5bb
00000090: 406a 9b3d 54d3 823d 1f7b 24bb 1013 6cbb
000000a0: 3fae 473c 6636 513d c601 e7bd b505 163e
000000b0: 44c0 5dbd c39b 8bbb 6aff 873c 0185 17be
000000c0: feaa b13b fb7c 503d 22c8 59bb 8603 c13d
000000d0: 63ce 9ebc fa47 bb3c f73b 98bc c765 413e
000000e0: 283d 25be 57cf 3f3e 46d5 28bd 5081 c8bd
000000f0: b1f0 453d bd5b 1ebd ec36 de3d b4f4 04be
00000100: c54a e9bd 529c a83c 745e b7bd 195d 283e
00000110: 09bb 1c3e 410f 543d b4a8 b13d 85bb df3d
00000120: 4bc7 623e 4dac 443e 7d2c 853d b51b e83d
00000130: 11bd aabc 6a56 3dbd 30a2 e43c da26 a9bb
00000140: 9f06 31bd 08c4 eb3d be98 373d 2fef c3bd
00000150: 98ef a2bc 0c5c a3bc 56ff 983c 5328 9b3c
00000160: 237e 803d 4ab6 b0bd 9050 9bbc e04f 1e3d
00000170: 0b9d 0c3d d30a 42bd 2fbf f13d 45db a63d
00000180: 5a08 5d3d a8c0 eebd 4613 46bd 630e 663d
00000190: 2ea3 673c 2e97 c53d 7e36 683c a1d9 9b3d
000001a0: b135 29bb ab17 27bc 5d9e af3c 64f1 d2bc
000001b0: 6495 57bd ab75 233e 0562 1a3e 4365 1a3d
000001c0: 4f1d 2ebd 6a14 f4bd 66b5 fabd 9a05 4fbd
000001d0: d24a bcbd b878 543d 2f62 cf3d ea19 8d3d
000001e0: ec60 d53c fcc7 9fbd 70ef d53d 18a7 d3bc
000001f0: 3e7e 9cbd a84a 2d3e b766 9fbc 8af2 633d
00000200: 9e88 f8bd 4097 d6bc 273c f43b 17d8 e23c
00000210: d6c3 0dbe 4054 47bc 07ea 253e fbbc bbbd
00000220: 0e9a dcbc 7ec0 933e 6d02 283c 4ed0 553c
00000230: 19e0 f03d 0aa2 523c 6117 d2bc e8ae 42bc
00000240: da16 1bbc f334 e33b ca26 e93d 7647 ac3d
00000250: 68d6 363e 03ed eabc c993 1f3d dc34 3c3d
00000260: 1c34 ad3d 3980 6c3e 591b 0abc 8e17 61bd
00000270: eff4 a03d af41 d23d 7281 623c 7ff6 a7bd
00000280: dff7 abbd 90e1 4fbd f0b7 0ebc 2711 e03b
00000290: 2a0a 74bd de22 9a3d bb1a dabb e21c ed3d
000002a0: 2aa6 483d 8457 28bd 7fa0 023d 0dd4 a43d
000002b0: 0232 6ebd 5bcb 923d ae60 f13d 0988 033e
000002c0: 8f59 d9bb 1d73 0f3d bf88 f4bc 3157 40bd
000002d0: f616 e8bd b286 10be 5a73 5e3d 50c2 753d
000002e0: 2cce 72bd ccc8 333e cb5f 7a3d c061 ee3c
000002f0: c5bf 213d 354e cebd 596a 8bbd b5d3 4d3e
00000300: af68 86bd bcd7 dc3c 42c8 c33d 2921 17be
00000310: ee12 11bd 2ab6 943c e0fe f83c dd89 e33d
00000320: fc25 74bd 71ee 1fbd 3895 5b3d 6d16 b0ba
00000330: 6d1b 95bc e98a 7d3d 19f2 1dbd e4c8 8fbd
00000340: 4a1b f1bb c156 2bbd 2e50 163e 5b7a 123d
00000350: b6a5 9f3d fc52 d5bb a457 5cbd 51d8 06bd
00000360: 6a46 0c3b db64 363e 651b f33d baaa 0e3d
00000370: 4b62 5a3d 9f5f bebc e802 0a3d 4f5c 0d3e
00000380: d26f 7d3d 0ba2 98bd cde6 b1bd 0a6e 9abd
00000390: 7f09 883d e3ed 77bd a3d2 203e e4b9 993c
000003a0: c099 2ebe 87e5 b63d 1d1d 21bd 0712 223b
000003b0: 826d b1bc 4e33 78bd ac22 b43d c495 dabd
000003c0: 06aa eabd 0f48 733d 2621 0bbe 389e 283e
000003d0: 7352 02bd 26f7 ac3d f757 26be 2ea1 bfbc
000003e0: 4432 3bbd cc66 f43d dbe9 91bd 2e1f 4f3c
000003f0: 9533 41bd c040 5dbe 19b6 d1bc a8da 0abc
0.09558754 0.007288135 -0.011672019 0.011435667 0.030573124 0.07838769 0.0056301425 -0.09696824
-0.044293854 0.1457668 -0.09443345 0.030279562 -0.09496274 0.0649087 0.09946988 -0.16393483
0.04143499 0.0016771847 -0.043086834 0.1105532 0.15819131 0.026195282 -0.04441514 -0.0342156
0.052072916 -0.02867679 0.106264554 0.0023847239 -0.047340125 0.019741794 0.22777331 -0.08126694
-0.14886406 0.09729881 0.009122957 -0.00747974 0.07588625 0.06387964 -0.00250978 -0.0036022104
0.01218754 0.05107727 -0.11279635 0.14650615 -0.054138437 -0.0042605116 0.016601283 -0.1479683
0.005421995 0.05090044 -0.003323086 0.094245 -0.019385522 0.02286147 -0.018583281 0.18886481
-0.1613661 0.18731438 -0.04121902 -0.097902894 0.048325244 -0.038661707 0.10850319 -0.12983972
-0.11391214 0.020582352 -0.089535624 0.16441764 0.15305723 0.05177236 0.08674756 0.109244384
0.22146337 0.19206353 0.06502626 0.1133341 -0.020842107 -0.04622499 0.027909368 -0.005162102
-0.043219205 0.11511999 0.0448234 -0.09567105 -0.019889638 -0.019941352 0.018676441 0.018940127
0.06274059 -0.08628519 -0.018959314 0.038650393 0.034329455 -0.047373604 0.118040435 0.08147291
0.053963043 -0.1165784 -0.048358224 0.056166064 0.014138026 0.09647976 0.014173148 0.07609869
-0.0025819356 -0.010198514 0.021437818 -0.02574987 -0.052632704 0.15962856 0.15076454 0.037694227
-0.04250842 -0.11917956 -0.1224163 -0.05054245 -0.09193958 0.05187294 0.10126149 0.06889708
0.026047193 -0.07801816 0.1044606 -0.025836512 -0.07641266 0.1692301 -0.019458158 0.055651225
-0.12135433 -0.026195168 0.00745346 0.02769093 -0.13844237 -0.012166083 0.16202556 -0.091669045
-0.026928928 0.28857797 0.010254485 0.013050152 0.11761493 0.012856016 -0.025645914 -0.011882521
-0.009465897 0.0069338023 0.113843516 0.084120676 0.17855227 -0.02867747 0.0389593 0.045948848
0.08457205 0.23095788 -0.008429372 -0.054954104 0.078592174 0.102664344 0.0138248075 -0.08201312
-0.08396887 -0.050752223 -0.008710846 0.006837982 -0.059580006 0.07526182 -0.0066560186 0.115777746
0.04898659 -0.041099086 0.031891342 0.08048258 -0.05815316 0.07167693 0.11786018 0.12844862
-0.0066329907 0.03502189 -0.029850362 -0.046958152 -0.113325045 -0.14113882 0.054309227 0.059999764
-0.059278652 0.17557067 0.06112651 0.029099345 0.039489526 -0.100735106 -0.068073936 0.20100291
-0.065629356 0.026958339 0.095596805 -0.14758743 -0.035418443 0.018153269 0.030394971 0.1111028
-0.059606537 -0.039045755 0.053609103 -0.0013434418 -0.018201554 0.061900053 -0.03856096 -0.07020739
-0.0073579894 -0.04183078 0.14679024 0.03576122 0.07795279 -0.0065101366 -0.053794518 -0.03292114
0.0021404275 0.17811911 0.118704595 0.034830786 0.053316396 -0.023238955 0.033694178 0.13804744
0.06187422 -0.07452782 -0.086866 -0.075405195 0.06642436 -0.0605296 0.15705352 0.018765397
-0.17050838 0.089304976 -0.039334405 0.0024729983 -0.021658663 -0.060595803 0.08795676 -0.10673097
-0.11458211 0.059394892 -0.13586864 0.16466606 -0.03181691 0.08445577 -0.16244493 -0.023392286
-0.045702234 0.119336694 -0.071246825 0.012641711 -0.047168333 -0.21606731 -0.025599526 -0.008474983

mlp_extractor.value_net.0.bias f4 [64]
00000000: 0000 0000 0000 0000 0000 0000 0000 0000
00000010: 0000 0000 0000 0000 0000 0000 0000 0000
00000020: 0000 0000 0000 0000 0000 0000 0000 0000
00000030: 0000 0000 0000 0000 0000 0000 0000 0000
00000040: 0000 0000 0000 0000 0000 0000 0000 0000
00000050: 0000 0000 0000 0000 0000 0000 0000 0000
00000060: 0000 0000 0000 0000 0000 0000 0000 0000
00000070: 0000 0000 0000 0000 0000 0000 0000 0000
00000080: 0000 0000 0000 0000 0000 0000 0000 0000
00000090: 0000 0000 0000 0000 0000 0000 0000 0000
000000a0: 0000 0000 0000 0000 0000 0000 0000 0000
000000b0: 0000 0000 0000 0000 0000 0000 0000 0000
000000c0: 0000 0000 0000 0000 0000 0000 0000 0000
000000d0: 0000 0000 0000 0000 0000 0000 0000 0000
000000e0: 0000 0000 0000 0000 0000 0000 0000 0000
000000f0: 0000 0000 0000 0000 0000 0000 0000 0000
0.0 0.0 0.0 0.0 0.0 0.0 0.0 0.0
0.0 0.0 0.0 0.0 0.0 0.0 0.0 0.0
0.0 0.0 0.0 0.0 0.0 0.0 0.0 0.0
0.0 0.0 0.0 0.0 0.0 0.0 0.0 0.0
0.0 0.0 0.0 0.0 0.0 0.0 0.0 0.0
0.0 0.0 0.0 0.0 0.0 0.0 0.0 0.0
0.0 0.0 0.0 0.0 0.0 0.0 0.0 0.0
0.0 0.0 0.0 0.0 0.0 0.0 0.0 0.0

mlp_extractor.value_net.2.weight f4 [64, 64]
00000000: 0479 bb3d 7abd 4dbd eb98 acbd 5c32 e0be
00000010: 0cea cd3c b3bb 77bc 4739 073e e928 fabd
00000020: 0fbc aa3e 643b 613d 7227 7e3e 5aa4 a53d
00000030: 1917 71bd 06cc 3e3e 4f53 a73e 2d9c 43be
00000040: e8e4 103d f7d7 da3d 0de2 e4bc 5baa 2ebe
00000050: eaca 4dbd 59b5 fb3c da16 d93e 5001 8b3e
00000060: 9001 8e3d 8a74 d9bd 4495 b5be 8c7e aabd
00000070: 0169 5cbe 5bc2 973e df59 68bd 39a3 2abd
00000080: bc5e 173e b103 6b3d fb81 b0be 1c73 39be
00000090: d0cf b13d 10cf b2bd b3a8 4c3e da16 d9be
000000a0: a6c1 0abe 3fcb a73d fc96 1ebc 399d 233e
000000b0: f2c3 f33d a4fc 4cbe 7652 10be faf4 adbd
000000c0: 13d8 34be d12e 993d 6392 063e 17ce 7bbd
000000d0: 1ac3 e8bb b2c1 eb3d b256 52bc 0dcc ab3b
000000e0: 54fb 363d 018b 7ebe 7314 a8bd d9c5 9cbe
000000f0: ff99 06bd 281d f43d d2f6 60bd 77fe b8bd
00000100: 43ab 013e e006 563c db4b 01be e101 e0bd
00000110: b164 3bbe a501 96bc bb7e 9a3d 22bd 593e
00000120: d3a4 243e 4d7d 323e f6e8 133e c178 4ebc
00000130: 3e75 a8bd 3b9c e03d 9dde 113e f9e4 683c
00000140: f420 053e d8a4 4ebe 5d71 b0bd 3bc7 0e3f
00000150: 2a57 7b3d f6a9 233e 226d b6be f105 93bc
00000160: 9838 d9bc 77c6 e1bd f483 353e 4df3 c13e
00000170: 776b 7fbd 53d5 05be 7768 a8bd ef09 2bbe
00000180: 80a8 f63e 4970 ddbd e532 103e 932b 04bd
00000190: 5480 113e 5ca3 d13d f085 863e 5d7c 06be
000001a0: 4201 843e 999e fdbd 8e66 d83d 8ff3 0fbe
000001b0: b9a9 b4bd 6c87 acbe 0d7f 5abe a70e 1c3d
000001c0: 3ee2 b9bd 3df7 613d c9f8 713c b625 19bc
000001d0: da6d 043e 12c5 823e 0fb2 4e3d d0f4 6abd
000001e0: ce80 873e a981 003e 5717 14bd 4737 5f3e
000001f0: 9356 59bd f1d8 143d 27c8 84be 17a6 d1bd
00000200: 1890 eb3d 2e85 803e 29b1 6e3e 8227 ecbd
00000210: b8a2 8dbd 68bc 61bd 8bbb a4be 7952 f4be
00000220: b747 393d a324 4a3b 3057 7cbd 81ed 1e3e
00000230: d050 49be df97 15bd 08a1 c2bc d13c c33d
00000240: 4c87 aabd 0efe 6d3e caa4 cfbb 36fc 51bd
00000250: ad40 fa3e c94b 2b3e bc8a 5c3e ed74 90be
00000260: 83a5 5cbd 1f0c 1cbd 33b3 b13d 8dbf 9d3e
00000270: d84a 813c afb3 bbbb cb7c 10be bc4e aa3d
00000280: 43df 7c3e 3d8e 4fbe 9308 8d3c 4d9c 8cbe
00000290: 04a5 4d3d 23df 60bc 7fe4 13be 36e4 563d
000002a0: 3509 303e 511c 1abd 099d 24be 0aa5 2b3d
000002b0: e611 e0bc 4bec 94bd d397 68bb 8428 f83d
000002c0: 5d50 6cbd d13c 6fbb 3829 b9be d9f1 1b3e
000002d0: b30d 253e a451 dcbc a5a3 c5bd 9f16 dcbd
000002e0: 7e69 8bbe 0a2e 3bbe 7bc3 48be 2523 6c3d
000002f0: 01aa 733e 4118 88ba 8e37 6c3e 46a1 a1be
00000300: 5ed2 d13d 1001 fcbd 6f32 c33d e3b6 72bd
00000310: 7d2c 213e b99f 9b3c eb47 ffbe 1e02 79be
00000320: 4225 af3e 1ef9 013e 4cc1 683d e252 963d
00000330: a404 93be c6f0 973d be65 79bd 59e5 24bd
00000340: 297b 773e d9c5 63be 8917 78bd 26db 28be
00000350: 47dc 3bbd 4eec 583d 6cad 13be 7803 123e
00000360: 9c79 023e d92c 10bd 9761 723c cabf b3bd
00000370: 860b 453d 8436 6d3e d5fb 4e3e 5d0d 76be
00000380: db7c 983c 3b13 50be cd1e 663e 7704 ba3e
00000390: 24e8 d13d 18fa 5f3c 1759 13be 95f0 3e3e
000003a0: 13a1 6e3c aadb c43d b579 7d3b e7b7 ebbd
000003b0: db78 94bd ecfa b53c 670c 80be 58d0 50be
000003c0: 0080 a33e c249 86be bacb 46bd 5802 cdbe
000003d0: 1438 22be 39a4 5c3e 851f 89bd abf6 a7bd
000003e0: 72cc 133e c349 d43d cf33 b2bd f312 2ebe
000003f0: 61ff 573e 7273 1c3e 0d1e 423e 9d38 0a3e
0.09153941 -0.050229527 -0.08427604 -0.4378842 0.025136016 -0.015120435 0.13205443 -0.12214834
0.33346602 0.05498828 0.24819735 0.08087988 -0.05885992 0.18632516 0.32680747 -0.19102545
0.035374552 0.10685723 -0.02793982 -0.17057173 -0.050242342 0.030726122 0.42400247 0.2714944
0.06933892 -0.10617931 -0.35465443 -0.08324918 -0.21524431 0.2964047 -0.056726333 -0.041659568
0.14782232 0.057376567 -0.34474167 -0.18110317 0.08682215 -0.087309 0.19986229 -0.42400247
-0.13550434 0.08193063 -0.009679552 0.15977944 0.11902608 -0.2001825 -0.14093956 -0.08493991
-0.17660551 0.07479633 0.1314178 -0.06147584 -0.007103336 0.11511554 -0.012838053 0.0052428306
0.04467328 -0.24857713 -0.082070254 -0.30619696 -0.032861706 0.119196236 -0.054922886 -0.0903291
0.12662987 0.013063163 -0.12626593 -0.109378584 -0.1830013 -0.018311331 0.07543703 0.21263555
0.160785 0.17430611 0.14444336 -0.012602032 -0.08225487 0.109672986 0.14245076 0.014214748
0.13000852 -0.2018007 -0.08615372 0.5577275 0.061362423 0.15982804 -0.35630137 -0.017947169
-0.026516244 -0.11024182 0.17726117 0.37880936 -0.062358346 -0.13069658 -0.0822305 -0.16703008
0.4817543 -0.10812432 0.14081915 -0.032268118 0.1420911 0.102362365 0.2627406 -0.13133378
0.2578221 -0.12383766 0.10566436 -0.14057754 -0.088214345 -0.3369707 -0.21337529 0.03809991
-0.090763554 0.055167425 0.014768788 -0.00934737 0.1293253 0.25540978 0.05046278 -0.057362378
0.26465458 0.12549461 -0.03615507 0.2179843 -0.05306108 0.036339704 -0.25933954 -0.10236757
0.11502093 0.25101608 0.23309769 -0.11530973 -0.06915802 -0.05511132 -0.32174334 -0.47719172
0.04523441 0.003084459 -0.061606586 0.15520288 -0.19659734 -0.03652179 -0.023758426 0.09533084
-0.08326587 0.23241445 -0.006336783 -0.051265918 0.4887747 0.16728128 0.21537298 -0.28214207
-0.05386878 -0.038097497 0.08676758 0.30810204 0.015782759 -0.005728207 -0.14110105 0.08315799
0.24694543 -0.20269103 0.017216003 -0.27462998 0.0502062 -0.013725075 -0.14442633 0.052463733
0.17191012 -0.03762466 -0.16075529 0.04190544 -0.027352285 -0.07271632 -0.0035490885 0.12117103
-0.057693828 -0.0036504755 -0.3616426 0.15228976 0.16118507 -0.026894398 -0.09650353 -0.10746502
-0.27228922 -0.18279281 -0.1960582 0.057650704 0.2379532 -0.0010383205 0.23068067 -0.31568354
0.102452025 -0.1230489 0.09531104 -0.059256446 0.15739627 0.01899706 -0.49859557 -0.24317214
0.34208113 0.12692687 0.056824967 0.073400274 -0.28714478 0.07418971 -0.060888045 -0.040257785
0.24168076 -0.22243442 -0.06056932 -0.16489848 -0.04586437 0.052959733 -0.14421624 0.14259136
0.12741703 -0.03519902 0.014793775 -0.08776815 0.048106693 0.23165327 0.20213254 -0.24028535
0.018614223 -0.20319836 0.22472687 0.3633153 0.102493554 0.013670467 -0.14389454 0.18646462
0.01456477 0.0961221 0.003867728 -0.11509686 -0.07249614 0.022214375 -0.25009462 -0.20391977
0.31933594 -0.26228148 -0.048534133 -0.4004085 -0.15841705 0.21547021 -0.06695465 -0.08201345
0.14433458 0.103656314 -0.08701288 -0.16999416 0.21093513 0.15278414 0.18956776 0.13498159

mlp_extractor.value_net.2.bias f4 [64]
00000000: 0000 0000 0000 0000 0000 0000 0000 0000
00000010: 0000 0000 0000 0000 0000 0000 0000 0000
00000020: 0000 0000 0000 0000 0000 0000 0000 0000
00000030: 0000 0000 0000 0000 0000 0000 0000 0000
00000040: 0000 0000 0000 0000 0000 0000 0000 0000
00000050: 0000 0000 0000 0000 0000 0000 0000 0000
00000060: 0000 0000 0000 0000 0000 0000 0000 0000
00000070: 0000 0000 0000 0000 0000 0000 0000 0000
00000080: 0000 0000 0000 0000 0000 0000 0000 0000
00000090: 0000 0000 0000 0000 0000 0000 0000 0000
000000a0: 0000 0000 0000 0000 0000 0000 0000 0000
000000b0: 0000 0000 0000 0000 0000 0000 0000 0000
000000c0: 0000 0000 0000 0000 0000 0000 0000 0000
000000d0: 0000 0000 0000 0000 0000 0000 0000 0000
000000e0: 0000 0000 0000 0000 0000 0000 0000 0000
000000f0: 0000 0000 0000 0000 0000 0000 0000 0000
0.0 0.0 0.0 0.0 0.0 0.0 0.0 0.0
0.0 0.0 0.0 0.0 0.0 0.0 0.0 0.0
0.0 0.0 0.0 0.0 0.0 0.0 0.0 0.0
0.0 0.0 0.0 0.0 0.0 0.0 0.0 0.0
0.0 0.0 0.0 0.0 0.0 0.0 0.0 0.0
0.0 0.0 0.0 0.0 0.0 0.0 0.0 0.0
0.0 0.0 0.0 0.0 0.0 0.0 0.0 0.0
0.0 0.0 0.0 0.0 0.0 0.0 0.0 0.0

action_net.weight f4 [23, 64]
00000000: d707 bb39 811f cfb7 cb5e 8eb9 159a 743a
00000010: 9bdb 3a3a cb2a a93a 211b 323a 50ae 12bb
00000020: 268c 7bba 20f9 24ba 354b cd3a fb69 0bba
00000030: 4eb0 363a a5b9 0039 4bc3 1b3b c08e 0fbb
00000040: c532 2ebb 1245 ed3a d066 943a 4105 58b7
00000050: 232d 8137 0867 a2b9 6213 9138 306f 8ab9
00000060: f0ad 91ba 981f 193b 8b8e 113a 6735 a9ba
00000070: 645c 3c3a e61e dcb9 aac8 043b 0932 a4ba
00000080: c70b 8dba b472 043a aaeb 0eb9 9361 d03a
00000090: 20fb cd38 2ac6 443a 2547 a438 32bb 95ba
000000a0: d8b6 c939 3cdc 6e39 832f ef3a 270b a139
000000b0: 98da 093b 270b 083a a14d 0239 be8a fa3a
000000c0: 4dc6 b4ba f20d 8e3a 8334 1b3b 17f0 263a
000000d0: 4771 70b9 a918 fcb9 290f ebb9 1d72 64bb
000000e0: de9d 59ba c986 3d3a 46e4 3c3a b6de 28bb
000000f0: aa8e 0b3a 6f4a 6b3a a1b3 7439 5f59 213a
00000100: fbfa eeb8 30b7 493a c688 d839 3354 afba
00000110: 2718 77b9 4d93 36ba 2e66 45b9 496b 7f3a
00000120: d783 78b9 3e4b 523a 6f9a 063b 9ed5 b03a
00000130: d24a 1eba 1df8 d738 9b86 baba 59fd 91ba
00000140: a964 58bb 0c71 8039 0fb6 a7ba 5243 ae39
00000150: 2c78 80b8 e50d e23a 7d60 9638 80bd 043a
00000160: 60a6 e8ba 81f5 f3b9 6e34 f1ba 0e27 8fba
00000170: f39f 1439 4d46 c13a 9cbf bbb7 c062 613a
00000180: f73a 25b9 554c 04bb 32ac 25bb f95d 203b
00000190: f8f7 ccba d722 e23a d04a 4ab9 ede3 81b9
000001a0: 5eef e137 652a f439 6575 f43a 2abb 45ba
000001b0: 822a 63bb 109d 77ba 19c9 f8b9 25d1 5739
000001c0: 60c6 06bb 47c9 203a 66e5 443a 14f7 f039
000001d0: 898a d53a d0d0 7dba 8420 a439 eefa e93a
000001e0: 84b2 673a 626f 293a 1765 bbba 4b76 963a
000001f0: 1993 85b7 5923 c53a cbe5 75b9 2bb5 b939
00000200: a27c bd39 ed4e 1a3a 733a 9439 be23 793a
00000210: 1441 b5ba a76d c037 78d6 4f39 99d0 d3ba
00000220: b3c1 d139 1e38 f7b8 8f0f 4a3b 7008 793a
00000230: afef 0f39 6bf1 c53a 6829 a13a 23da 80b9
00000240: bc0f abba d5ae fbb9 2af3 b339 6b4a c83a
00000250: 7660 1c38 8d56 30ba 49d7 743a ddd8 3bbb
00000260: fbee 203b 95fc b4ba c496 36bb fdc7 4e39
00000270: 8c33 68b9 25a0 fbba 0200 89b8 f942 9fb9
00000280: 418a d33a a76c cbba 7601 0a3b 8f50 8aba
00000290: f217 9cb9 e03f 80ba 5503 0b3a ff0d 0739
000002a0: bc9b ffb8 a9da c43a d769 733a 6e28 efb9
000002b0: 3ce3 a3b9 5c04 3bbb a5d9 d2b9 1472 1bbb
000002c0: 8f84 89b7 56fe 213a 3b60 ee39 0a51 ba38
000002d0: 578b a038 1bf0 9839 4099 ca3a 946c 55ba
000002e0: 782d f239 92fd 3bbb 0b71 b5b9 3424 7aba
000002f0: cfa8 c0ba 304c 21ba d246 23b6 dbf7 82ba
00000300: d0f8 443a 701e 33ba 1eb1 0fba 19ff 1cba
00000310: 6b83 c33a a003 bbba ec33 083b 0a25 de3a
00000320: 50ae d639 4922 663a dfe1 8e3a f6f1 8e3a
00000330: 8738 603a a0e5 28bb a7df d337 37bc 6eb9
00000340: c756 a0ba e21f 333a 1760 45bb 2f22 0a3a
00000350: 20dd aeba 3b20 80ba a874 0139 bbb8 7dba
00000360: 2ba9 9738 c593 ba3a cdf8 1139 82b2 b33a
00000370: 0c79 df3a ddf6 0c3a e75a cd3a 2dc8 213a
00000380: 66d1 0f3b 2fea dbba 6fcd d6ba 77c9 07bb
00000390: 2f2d 073b 0468 d63a e839 0e3b da42 963a
000003a0: b9de f939 30d8 3fba 0fa9 4b3a 9cf4 023a
000003b0: dbb1 0d3b 6a5a 7f3a 784e 38ba 4da0 9939
000003c0: 42f8 c839 ab88 0439 81ab 75b7 6307 993a
000003d0: 2edc afb8 dec3 7f3a a535 a539 b294 153a
000003e0: 5639 ab3a ca38 8d39 9b13 c53a 147b 6838
000003f0: cffd efba bce1 17bb 4024 9f38 be1b 9cb9
0.0003567326 -2.4690993e-05 -0.00027154977 0.00093308213 0.00071280607 0.001290643 0.00067942037 -0.002238173
-0.0009595774 -0.0006293226 0.0015662672 -0.00053182215 0.00069690205 0.00012276189 0.0023767527 -0.0021905154
-0.0026580554 0.001810225 0.0011322144 -1.28758265e-05 1.5399017e-05 -0.00030975812 6.917749e-05 -0.00026404252
-0.001111446 0.0023364779 0.00055525516 -0.0012909592 0.0007185398 -0.0004198469 0.0020261207 -0.0012527119
-0.0010760956 0.00050524925 -0.00013629967 0.001589822 9.8219374e-05 0.00075063354 7.833381e-05 -0.0011423586
0.00038473937 0.00022779492 0.0018248413 0.00030716622 0.0021034833 0.000518965 0.00012426685 0.0019114835
-0.0013792008 0.0010837896 0.0023682422 0.00063681736 -0.00022930383 -0.0004808356 -0.00044833988 -0.0034858056
-0.0008301417 0.00072298624 0.0007205646 -0.0025767512 0.0005323688 0.000897563 0.0002333657 0.000615498
-0.00011395473 0.00076948386 0.00041300635 -0.0013376534 -0.00023564753 -0.00069646986 -0.00018825449 0.0009743465
-0.00023700237 0.0008022076 0.0020538827 0.0013491397 -0.0006038371 0.000102982136 -0.0014230789 -0.0011138126
-0.0033018983 0.0002449829 -0.0012795347 0.00033238024 -6.1258994e-05 0.0017246573 7.17053e-05 0.0005063638
-0.0017749779 -0.00046531486 -0.0018402466 -0.0010921673 0.00014173966 0.0014745683 -2.2381362e-05 0.0008597784
-0.00015757592 -0.00201871 -0.0025279638 0.0024470075 -0.0015637865 0.0017252815 -0.00019292091 -0.00024774615
2.6933554e-05 0.00046570893 0.0018650709 -0.0007542843 -0.0034662788 -0.00094457064 -0.00047452076 0.0002058191
-0.0020565018 0.0006133508 0.00075109897 0.00045960455 0.0016291897 -0.00096822996 0.00031304744 0.0017851272
0.00088385516 0.0006463436 -0.0014297095 0.0011479346 -1.5923333e-05 0.0015040442 -0.00023450625 0.0003542093
0.00036141748 0.00058863946 0.00028272308 0.0009503922 -0.0013828599 2.2939244e-05 0.00019820954 -0.0016160189
0.00040007904 -0.000117883304 0.0030832028 0.00094998535 0.00013726832 0.0015101855 0.0012295665 -0.00024576587
-0.0013050954 -0.0004800471 0.00034322712 0.0015280967 3.7283135e-05 -0.0006726764 0.00093399413 -0.0028663196
0.0024556506 -0.0013808185 -0.002786086 0.00019720192 -0.00022144447 -0.0019197507 -6.5326705e-05 -0.00030376742
0.0016139225 -0.0015520052 0.0021058 -0.0010552573 -0.0002977248 -0.0009784661 0.0005302926 0.00012879817
-0.00012188355 0.0015018779 0.0009285486 -0.00045615755 -0.00031259086 -0.0028536534 -0.0004021648 -0.002371912
-1.63934e-05 0.00061795616 0.00045466595 8.884266e-05 7.6553486e-05 0.00029170592 0.0015457049 -0.00081414846
0.00046191714 -0.0028685075 -0.00034607234 -0.0009542138 -0.0014698746 -0.00061530154 -2.4330116e-06 -0.000999208
0.00075138826 -0.00068328436 -0.00054814096 -0.000598894 0.0014916485 -0.0014268048 0.00207829 0.0016948294
0.00040947134 0.00087789126 0.0010901055 0.001090585 0.0008553345 -0.0025771633 2.5257306e-05 -0.00022767564
-0.0012232893 0.0006833059 -0.0030117088 0.0005269376 -0.0013341047 -0.000977523 0.00012345857 -0.0009678711
7.231751e-05 0.0014234713 0.00013920963 0.0013709816 0.0017049625 0.00053773617 0.001566735 0.0006171491
0.002194488 -0.0016778166 -0.0016388128 -0.0020719448 0.0020626297 0.0016357903 0.0021701995 0.0011464015
0.00047658922 -0.0007318286 0.0007769027 0.0004995556 0.0021620903 0.0009740951 -0.0007030736 0.00029301867
0.0003833194 0.00012639414 -1.4643069e-05 0.0011675175 -8.385662e-05 0.00097566645 0.0003151122 0.0005706056
0.0013063352 0.00026935927 0.001503575 5.5427736e-05 -0.0018309894 -0.002317532 7.588463e-05 -0.00029775308

action_net.bias f4 [23]
00000000: 0000 0000 0000 0000 0000 0000 0000 0000
00000010: 0000 0000 0000 0000 0000 0000 0000 0000
00000020: 0000 0000 0000 0000 0000 0000 0000 0000
00000030: 0000 0000 0000 0000 0000 0000 0000 0000
00000040: 0000 0000 0000 0000 0000 0000 0000 0000
00000050: 0000 0000 0000 0000 0000 0000
0.0 0.0 0.0 0.0 0.0 0.0 0.0 0.0
0.0 0.0 0.0 0.0 0.0 0.0 0.0 0.0
0.0 0.0 0.0 0.0 0.0 0.0 0.0

value_net.weight f4 [1, 64]
00000000: d8ca 053e b53a 8f3d f0b1 58be 6938 363d
00000010: 6722 803d 2870 b93d 25e8 8f3d fa41 1f3e
00000020: 298a 023e 8186 cb3c 0508 a2bd 756d 94bd
00000030: 7e86 29be 706a 8fbe 8bbb 9c3d 2b60 a33c
00000040: 99de adbc a8c1 1d3c 54f1 d5bd 011a 913c
00000050: 375f 1f3e cd65 e63c ce82 873d b514 e53b
00000060: f7ff a2bc b7d1 563e 263c 88be cf8b 263e
00000070: 3908 8c3d d4b2 24be da7e 0d3e 36e0 77bd
00000080: 186e 35bd c953 10be 54b7 d8bc 9e06 923d
00000090: c470 a83d fe0a 7d3e 39ce b6bd 3040 0f3e
000000a0: e38f d23c 31c1 383e ccd3 113e eb54 9ebd
000000b0: 98ec b6bd 3d9d 91bd 9004 2ebe dbfe 6b3e
000000c0: 3113 4abe 9618 5d3b f4d2 b4bd 2185 08be
000000d0: 8352 18be e39f 07bd 5801 5abe c492 393e
000000e0: 7640 4bbd e084 353e ec82 353d a868 ddbc
000000f0: ee39 413d d4df 1dbe 9597 9b3c a3db abbd
0.1306566 0.06993619 -0.21161628 0.04448739 0.06256562 0.09054595 0.070267 0.15552512
0.12748016 0.02484441 -0.07911686 -0.0724744 -0.16555211 -0.28010893 0.076529585 0.019943317
-0.021224307 0.009628691 -0.1044642 0.017712595 0.15563665 0.028124714 0.06616746 0.006990994
-0.019897444 0.20978437 -0.2660839 0.1626427 0.06837506 -0.16083843 0.13817921 -0.06051656
-0.044294447 -0.14094462 -0.026454605 0.071301684 0.08224633 0.24711224 -0.089260526 0.1398933
0.025703376 0.18042447 0.1424095 -0.077310406 -0.089318454 -0.07110069 -0.16993928 0.23046438
-0.19733883 0.0033736578 -0.088292986 -0.13332035 -0.14875226 -0.033111464 -0.21289575 0.18122393
-0.04962202 0.17726469 0.04431431 -0.027027443 0.047174387 -0.15417415 0.018993178 -0.08391502

encoder.node_proj.weight f4 [128, 4]
00000000: 0562 00bf 874f 2a3e 9c73 363e af25 73be
00000010: 6b2e f13e 3da7 5a3d bfdc 2bbe 9b28 bbbd
00000020: 0a6e f9be 6c7d ec3d afd6 75bc 1791 a7be
00000030: 5b28 d63e 4cf1 c8be aea3 be3e 91aa d7be
00000040: ea0c 9ebe cc49 a23e 87d6 833c 6c96 b2be
00000050: 47b6 8f3c 9fbe ffbd 8a3b d9bd 9ddd 5a3e
00000060: 6de4 3cbe 94e2 b53e 8f2f d8be d47f 863e
00000070: 2474 8d3e 97a6 8dbe 4033 9bbd 4e50 edbe
00000080: d942 bd3e 0280 a03d e26b 6ebe 4159 d3be
00000090: a74e e9be 0526 853e 9533 7b3d 8360 4e3e
000000a0: bfca fb3e f8fc d8be 1f23 5cbe b103 e63d
000000b0: 9ff9 d6bd b0a7 9e3e f1d6 b23e 6c62 393e
000000c0: 435c 333e 0309 673d d1b2 abbe daa7 833d
000000d0: 2997 b2be c548 1fbe 4a2c ebbe 477e e33e
000000e0: bc07 c63e a154 713e 1d57 b43e a8de d8bd
000000f0: e927 2d3e be79 013f 4b52 823e 87cd 1ebe
00000100: d92b 373b 8d5d a8be 05a3 83bd 7365 82be
00000110: 3d6e 853e 726e a93d 0df3 a3bd fc0d e13e
00000120: 24f7 3d3d 6285 083e 5ae6 f13e f270 2b3e
00000130: 1eea 313e 4a42 cc3d 67ea 06be d00c ccbe
00000140: b56a 8cbd 39ff 98be 3a3f c9be dc5c 863d
00000150: 4341 bbbe 9568 cebd 6891 223e 2762 243e
00000160: 1428 a2be da91 c1be b702 353e ff32 83bd
00000170: 8cdd c23e 6a39 e33e 1f33 3f3e 4e02 923e
00000180: c66b b13e 3f80 77be 0cee f7be 2850 2dbe
00000190: b3aa 923d d4f7 99be 9cf3 adbe 367d 90be
000001a0: 28b5 cb3d a8d2 29be eaa6 fc3e c1c9 9b3e
000001b0: 217b 0abd c78f 0fbe fb2e df3e 0109 313e
000001c0: f4ec 103c c2b4 9e3d 3e30 aebe 0e30 47be
000001d0: 1e34 b6be f378 e53d 5207 1e3e 807c 9fbe
000001e0: b26f 97bd 7ab5 f73e c6d8 073e 5a45 753c
000001f0: 581a 4d3d 9e1b d9be 5f64 a9be 309b a7be
00000200: a699 00bf dae5 e73e 3ff6 b43e 56f8 403e
00000210: e187 f63e adcc ab3e 2bb5 e8be a546 70be
00000220: 2874 023e a264 01bf 98ba e93e 46b1 933c
00000230: 88b9 7e3e a1e5 2ebe 0217 b33e 49ca 9cbe
00000240: 37f6 86be e94a 38be 3abe f33e ac72 7cbe
00000250: 9098 e3be ecf3 debd ab4c f63e 3c03 f93e
00000260: c4e1 c13d fc37 07be e21b 87be e4ea 4d3d
00000270: 43b8 903d 98ef fd3e 43ae 9fbd 7000 ba3d
00000280: 486a a0be bc97 63bd 215e 023e 18cb 323e
00000290: 709b 62bd cadf f2be 3d6d f5be 94af 483e
000002a0: d31d b43e e142 be3e da62 db3e 97af cc3c
000002b0: 7724 c2be 0a87 e9be 762a e4be 76c5 8a3e
000002c0: da3f dbbc 3f38 d1bd e4b7 a63e ca9f a93e
000002d0: c7c3 623e 8b4c 63bd 4858 2ebd 5a88 cabd
000002e0: ed44 9e3d 690c b03e bcd5 d53d 1f8c 91be
000002f0: d13f 3a3e 3907 6c3e 13fd e0be 80f8 86be
00000300: 8eca 1abe a21d f53e a93f dc3b c554 c03e
00000310: 8de1 23be 6727 29be b842 7e3e 9ec8 a33e
00000320: e485 b8be 83d5 39be f95b 54bd c83f e13e
00000330: 4f9a 733d 1da5 17be 8d58 b53e 58c8 aabe
00000340: 010e a93e e70b 14be c175 ccbe 3f15 43be
00000350: 738a f5be be7c a0be 89ed f23d 5dd8 943e
00000360: 5df7 76be e3fa 013f 704d ba3e 8daa b13e
00000370: bfe4 dabc 0dd0 33be 4b4a a23e 4846 0fbe
00000380: ddee cdbe 2c5d eb3e 9362 733d c3a7 9e3e
00000390: ccf0 07be 1dc9 a33c 7f87 733e 4c0f c73c
000003a0: a929 953d 50e9 b7be d82f 5d3e 49b5 f8be
000003b0: 747b fc3e e4fb 2c3e 049d e2be 5aa5 bc3e
000003c0: 581c 76be c124 823e 95fe 4a3e ff0d 673e
000003d0: cfd4 efbd dabc 17be 3502 cb3e a8d5 fc3d
000003e0: 3c45 12bd 09d9 efbe 30d0 aabe 4438 cb3e
000003f0: 1dc6 ebbd d2eb c7be a34a 68be c960 4cbe
-0.50149566 0.166319 0.17817539 -0.23744844 0.47105727 0.053382147 -0.16783427 -0.09138604
-0.48716766 0.1154736 -0.015004798 -0.32727882 0.41827664 -0.39246595 0.37234253 -0.4212232
-0.30869228 0.31696928 0.016093506 -0.34880388 0.017542971 -0.1248753 -0.10607059 0.21373601
-0.18446513 0.35524428 -0.42223784 0.262694 0.2762767 -0.2766616 -0.075781345 -0.4635033
0.36965063 0.078369156 -0.23283342 -0.41279033 -0.4556782 0.2600557 0.06132849 0.20154004
0.4917812 -0.423805 -0.21497773 0.11231173 -0.1049683 0.3098731 0.34929612 0.18103951
0.17515664 0.05640508 -0.33534864 0.064284995 -0.3488095 -0.15555103 -0.45932227 0.4443228
0.38677776 0.2356744 0.35222712 -0.10589343 0.16909756 0.5057639 0.2545341 -0.1550809
0.002794972 -0.32883874 -0.06427578 -0.25468025 0.26060668 0.08273019 -0.08005343 0.43955982
0.04637827 0.13332132 0.47246057 0.16742304 0.17374465 0.09973581 -0.13175355 -0.39853525
-0.0685629 -0.2988222 -0.3930605 0.0656068 -0.36573228 -0.10078541 0.1587578 0.16053067
-0.31671202 -0.37806588 0.17676817 -0.06406211 0.38059652 0.4437974 0.18671845 0.28517383
0.34652537 -0.24170016 -0.48423803 -0.16925108 0.071614645 -0.3007189 -0.33974922 -0.28220528
0.09946662 -0.16584265 0.49346095 0.30427364 -0.03380883 -0.1401969 0.4359053 0.17288591
0.0088455565 0.077493206 -0.3402118 -0.19451925 -0.35586637 0.1120471 0.1543248 -0.31149673
-0.07394351 0.48380643 0.13266286 0.014970148 0.05007395 -0.42403883 -0.3308439 -0.32735586
-0.5023445 0.4529255 0.3534412 0.18844733 0.48150542 0.33554593 -0.4545072 -0.23464449
0.12739623 -0.5054418 0.45650172 0.018028866 0.24875462 -0.17079784 0.3497849 -0.3062308
-0.26359722 -0.17997326 0.4760607 -0.24653119 -0.44452333 -0.10886368 0.48105368 0.4863528
0.094668895 -0.1320495 -0.2638846 0.050272837 0.07066395 0.49596858 -0.0779691 0.09082115
-0.31331086 -0.055564627 0.1273122 0.17460287 -0.055324018 -0.47436363 -0.47934905 0.19598228
0.35179004 0.371604 0.42848855 0.024986072 -0.37918445 -0.4561084 -0.44563645 0.27103776
-0.026763845 -0.10215806 0.32562172 0.33129722 0.22144996 -0.05549292 -0.04256466 -0.09889288
0.0772799 0.34384468 0.10441157 -0.28427216 0.18188407 0.2304963 -0.4394308 -0.26361465
-0.15116331 0.4787417 0.006721456 0.37564674 -0.1600401 -0.16518937 0.24830139 0.31988996
-0.3603965 -0.18147855 -0.051845524 0.43993974 0.059473332 -0.1480908 0.3541912 -0.33355975
0.33018497 -0.14457665 -0.3993359 -0.19051073 -0.4795719 -0.3134517 0.118617125 0.29071322
-0.24117799 0.5077345 0.36387205 0.34700432 -0.026720403 -0.17559834 0.31697306 -0.13991654
-0.402213 0.45969522 0.05942018 0.30987367 -0.1327545 0.01999336 0.23782156 0.024299286
0.07283337 -0.3592019 0.21600282 -0.4857581 0.49312937 0.16892964 -0.44260418 0.36844903
-0.2403425 0.25418666 0.19823678 0.22563933 -0.11710512 -0.14818135 0.3965012 0.12345439
-0.03571056 -0.46845272 -0.3336196 0.39691365 -0.115123965 -0.39047104 -0.22684722 -0.19958796

encoder.node_proj.bias f4 [128]
00000000: cc44 983e cd62 a33e 98d4 353e 0db7 5b3e
00000010: 4ea0 12be b381 1fbe 14da b23e b3fe 683d
00000020: 3cd3 b53e 8b0e db3e 7c85 dabe 24cf 26be
00000030: 9ec2 f43e 69e2 ae3e 2a39 8e3e ec28 13be
00000040: 2afc bc3e f6a9 8bbe 252d ab3e fcff 60bc
00000050: 2be8 873e e39f a13e 27e7 343e 4154 913d
00000060: 0c33 3fbe 871c 473d 8131 babd 337a e33d
00000070: d44b cabe 819d 9fbd 1238 a23e a76d 93be
00000080: 71fb cbbe d23a e3be 004d 72be 6118 a8be
00000090: 2565 8abc c602 473d f853 55bd 72d6 fc3d
000000a0: 44a0 0b3e 9750 a83e 59fd 6ebe ed08 743e
000000b0: 60ad a8bd 11b9 22be 0de3 a6be 82bc 3dbe
000000c0: 7cdf cdbe 874d f73e ced4 71be 123a 7f3e
000000d0: 8669 aabd 6bbc 9f3e f78b f8be 6f2d 9b3e
000000e0: 059c 0e3e 4baa 103e da4a 0a3e 329a 61bd
000000f0: 6823 03bd fd4f 563e 795f d8be ea46 b7be
00000100: a148 09be 8ca6 503d 9125 803e 9681 6b3e
00000110: 07ca 823d 854d 04be 676d 4bbe 3bef 4bbd
00000120: d99d ebbe c61d ed3e ea9f a5bd 6f2a 3abe
00000130: 2743 da3d ba59 cbbe c796 ebbc 69c3 b9be
00000140: 0df5 f2be 8f23 c1be e7c7 a3be 3b81 8dba
00000150: 2968 a6be b6eb ba3c e698 0abd c89a e43e
00000160: 14fe e33c 2c4f 70bd cda5 aa3e 4b43 a2be
00000170: 671d a53d 04d7 b63e 0c75 81be 459e 6bbe
00000180: 3130 d73e 4f2e 9ebd 5a46 b3be b360 a7bd
00000190: 45eb d03e ed14 8ebc c9eb e43e b8f3 aebe
000001a0: 35a6 923e 2101 2dbe 264e 45bd ef2f 55bd
000001b0: f8c8 6fbe 9281 eb3d 2ad4 eebe 8ca3 f1be
000001c0: 393d a4bd f4fb 8a3e fc74 aabd d417 e53e
000001d0: a2c3 9c3e 9b43 aa3e 8ad5 9abe 1f54 23be
000001e0: bb78 4e3e cccf fdbe 7af6 b8be 356b 7cbd
000001f0: c0dd ccbe 64e0 7dbe f758 7e3e a00a eb3d
0.29739988 0.31911317 0.1775688 0.21456547 -0.14318964 -0.1557682 0.34932005 0.056883525
0.35512722 0.42784533 -0.42679965 -0.16289955 0.4780473 0.34157112 0.27777988 -0.14371079
0.36911136 -0.27278107 0.3343288 -0.013732906 0.26544318 0.31567296 0.17666303 0.07096148
-0.18671817 0.04861119 -0.09091473 0.11107292 -0.39510977 -0.07793713 0.31683403 -0.28794596
-0.39840272 -0.44380814 -0.23662186 -0.328311 -0.016893933 0.04858663 -0.052082032 0.1234559
0.13635355 0.32873985 -0.23338832 0.2383153 -0.08236194 -0.1589091 -0.325951 -0.18528941
-0.40209568 0.48301336 -0.23616335 0.24924496 -0.08320908 0.3119844 -0.48544285 0.303081
0.13926704 0.14127462 0.13505116 -0.055078693 -0.032016188 0.2092895 -0.4226034 -0.3579629
-0.13406612 0.05094008 0.2502866 0.22998652 0.0638619 -0.12920196 -0.19865952 -0.049788695
-0.46018866 0.46311778 -0.08087142 -0.1818025 0.106573395 -0.39716893 -0.02875842 -0.362819
-0.47452584 -0.37722442 -0.3198845 -0.001079596 -0.32501343 0.022817474 -0.03383722 0.4464934
0.027831115 -0.058669254 0.3332962 -0.31691965 0.08062249 0.3571092 -0.25284612 -0.23009594
0.42028955 -0.077236764 -0.3501461 -0.08172741 0.40804496 -0.017343963 0.4471114 -0.34170318
0.2864243 -0.16894962 -0.04817023 -0.052047666 -0.23416507 0.11499323 -0.46646243 -0.4719509
-0.0801949 0.2714535 -0.08323094 0.44744742 0.30618006 0.33254704 -0.30241042 -0.15950058
0.20163243 -0.495726 -0.36125547 -0.061625678 -0.40012932 -0.2479263 0.24838625 0.11476636
